<?xml version="1.0"?>
<net name="torch_jit" version="11">
	<layers>
		<layer id="0" name="image" type="Parameter" version="opset1">
			<data shape="?,3,736,992" element_type="f32" />
			<rt_info>
				<attribute name="old_api_map_element_type" version="0" value="f16" />
			</rt_info>
			<output>
				<port id="0" precision="FP32" names="image">
					<dim>-1</dim>
					<dim>3</dim>
					<dim>736</dim>
					<dim>992</dim>
				</port>
			</output>
		</layer>
		<layer id="1" name="/Constant_30_compressed" type="Const" version="opset1">
			<data element_type="f16" shape="1, 1, 4" offset="0" size="8" />
			<output>
				<port id="0" precision="FP16">
					<dim>1</dim>
					<dim>1</dim>
					<dim>4</dim>
				</port>
			</output>
		</layer>
		<layer id="2" name="/Constant_30" type="Convert" version="opset1">
			<data destination_type="f32" />
			<rt_info>
				<attribute name="decompression" version="0" />
			</rt_info>
			<input>
				<port id="0" precision="FP16">
					<dim>1</dim>
					<dim>1</dim>
					<dim>4</dim>
				</port>
			</input>
			<output>
				<port id="1" precision="FP32" names="/Constant_30_output_0">
					<dim>1</dim>
					<dim>1</dim>
					<dim>4</dim>
				</port>
			</output>
		</layer>
		<layer id="3" name="/Constant_17" type="Const" version="opset1">
			<data element_type="i64" shape="" offset="8" size="8" />
			<output>
				<port id="0" precision="I64" names="/Constant_17_output_0" />
			</output>
		</layer>
		<layer id="4" name="Constant_42783_compressed" type="Const" version="opset1">
			<data element_type="f16" shape="1, 3, 1, 1" offset="16" size="6" />
			<rt_info>
				<attribute name="preprocessing" version="0" />
			</rt_info>
			<output>
				<port id="0" precision="FP16">
					<dim>1</dim>
					<dim>3</dim>
					<dim>1</dim>
					<dim>1</dim>
				</port>
			</output>
		</layer>
		<layer id="5" name="Constant_42783" type="Convert" version="opset1">
			<data destination_type="f32" />
			<rt_info>
				<attribute name="decompression" version="0" />
				<attribute name="preprocessing" version="0" />
			</rt_info>
			<input>
				<port id="0" precision="FP16">
					<dim>1</dim>
					<dim>3</dim>
					<dim>1</dim>
					<dim>1</dim>
				</port>
			</input>
			<output>
				<port id="1" precision="FP32">
					<dim>1</dim>
					<dim>3</dim>
					<dim>1</dim>
					<dim>1</dim>
				</port>
			</output>
		</layer>
		<layer id="6" name="Multiply_42785" type="Multiply" version="opset1">
			<data auto_broadcast="numpy" />
			<input>
				<port id="0" precision="FP32">
					<dim>-1</dim>
					<dim>3</dim>
					<dim>736</dim>
					<dim>992</dim>
				</port>
				<port id="1" precision="FP32">
					<dim>1</dim>
					<dim>3</dim>
					<dim>1</dim>
					<dim>1</dim>
				</port>
			</input>
			<output>
				<port id="2" precision="FP32">
					<dim>-1</dim>
					<dim>3</dim>
					<dim>736</dim>
					<dim>992</dim>
				</port>
			</output>
		</layer>
		<layer id="7" name="Constant_42787_compressed" type="Const" version="opset1">
			<data element_type="f16" shape="1, 3, 1, 1" offset="22" size="6" />
			<output>
				<port id="0" precision="FP16">
					<dim>1</dim>
					<dim>3</dim>
					<dim>1</dim>
					<dim>1</dim>
				</port>
			</output>
		</layer>
		<layer id="8" name="Constant_42787" type="Convert" version="opset1">
			<data destination_type="f32" />
			<rt_info>
				<attribute name="decompression" version="0" />
			</rt_info>
			<input>
				<port id="0" precision="FP16">
					<dim>1</dim>
					<dim>3</dim>
					<dim>1</dim>
					<dim>1</dim>
				</port>
			</input>
			<output>
				<port id="1" precision="FP32">
					<dim>1</dim>
					<dim>3</dim>
					<dim>1</dim>
					<dim>1</dim>
				</port>
			</output>
		</layer>
		<layer id="9" name="Divide_20989" type="Add" version="opset1">
			<data auto_broadcast="numpy" />
			<input>
				<port id="0" precision="FP32">
					<dim>-1</dim>
					<dim>3</dim>
					<dim>736</dim>
					<dim>992</dim>
				</port>
				<port id="1" precision="FP32">
					<dim>1</dim>
					<dim>3</dim>
					<dim>1</dim>
					<dim>1</dim>
				</port>
			</input>
			<output>
				<port id="2" precision="FP32">
					<dim>-1</dim>
					<dim>3</dim>
					<dim>736</dim>
					<dim>992</dim>
				</port>
			</output>
		</layer>
		<layer id="10" name="onnx::Conv_2290_compressed" type="Const" version="opset1">
			<data element_type="f16" shape="32, 3, 3, 3" offset="28" size="1728" />
			<output>
				<port id="0" precision="FP16">
					<dim>32</dim>
					<dim>3</dim>
					<dim>3</dim>
					<dim>3</dim>
				</port>
			</output>
		</layer>
		<layer id="11" name="onnx::Conv_2290" type="Convert" version="opset1">
			<data destination_type="f32" />
			<rt_info>
				<attribute name="decompression" version="0" />
			</rt_info>
			<input>
				<port id="0" precision="FP16">
					<dim>32</dim>
					<dim>3</dim>
					<dim>3</dim>
					<dim>3</dim>
				</port>
			</input>
			<output>
				<port id="1" precision="FP32" names="onnx::Conv_2290">
					<dim>32</dim>
					<dim>3</dim>
					<dim>3</dim>
					<dim>3</dim>
				</port>
			</output>
		</layer>
		<layer id="12" name="/backbone/init_block/conv/Conv/WithoutBiases" type="Convolution" version="opset1">
			<data strides="2, 2" dilations="1, 1" pads_begin="1, 1" pads_end="1, 1" auto_pad="explicit" />
			<input>
				<port id="0" precision="FP32">
					<dim>-1</dim>
					<dim>3</dim>
					<dim>736</dim>
					<dim>992</dim>
				</port>
				<port id="1" precision="FP32">
					<dim>32</dim>
					<dim>3</dim>
					<dim>3</dim>
					<dim>3</dim>
				</port>
			</input>
			<output>
				<port id="2" precision="FP32">
					<dim>-1</dim>
					<dim>32</dim>
					<dim>368</dim>
					<dim>496</dim>
				</port>
			</output>
		</layer>
		<layer id="13" name="Reshape_178_compressed" type="Const" version="opset1">
			<data element_type="f16" shape="1, 32, 1, 1" offset="1756" size="64" />
			<output>
				<port id="0" precision="FP16">
					<dim>1</dim>
					<dim>32</dim>
					<dim>1</dim>
					<dim>1</dim>
				</port>
			</output>
		</layer>
		<layer id="14" name="Reshape_178" type="Convert" version="opset1">
			<data destination_type="f32" />
			<rt_info>
				<attribute name="decompression" version="0" />
			</rt_info>
			<input>
				<port id="0" precision="FP16">
					<dim>1</dim>
					<dim>32</dim>
					<dim>1</dim>
					<dim>1</dim>
				</port>
			</input>
			<output>
				<port id="1" precision="FP32">
					<dim>1</dim>
					<dim>32</dim>
					<dim>1</dim>
					<dim>1</dim>
				</port>
			</output>
		</layer>
		<layer id="15" name="/backbone/init_block/conv/Conv" type="Add" version="opset1">
			<data auto_broadcast="numpy" />
			<input>
				<port id="0" precision="FP32">
					<dim>-1</dim>
					<dim>32</dim>
					<dim>368</dim>
					<dim>496</dim>
				</port>
				<port id="1" precision="FP32">
					<dim>1</dim>
					<dim>32</dim>
					<dim>1</dim>
					<dim>1</dim>
				</port>
			</input>
			<output>
				<port id="2" precision="FP32" names="/backbone/init_block/conv/Conv_output_0">
					<dim>-1</dim>
					<dim>32</dim>
					<dim>368</dim>
					<dim>496</dim>
				</port>
			</output>
		</layer>
		<layer id="16" name="/backbone/init_block/activ/Clip" type="Clamp" version="opset1">
			<data min="0" max="6" />
			<input>
				<port id="0" precision="FP32">
					<dim>-1</dim>
					<dim>32</dim>
					<dim>368</dim>
					<dim>496</dim>
				</port>
			</input>
			<output>
				<port id="1" precision="FP32" names="/backbone/init_block/activ/Clip_output_0">
					<dim>-1</dim>
					<dim>32</dim>
					<dim>368</dim>
					<dim>496</dim>
				</port>
			</output>
		</layer>
		<layer id="17" name="onnx::Conv_2293_compressed" type="Const" version="opset1">
			<data element_type="f16" shape="32, 32, 1, 1" offset="1820" size="2048" />
			<output>
				<port id="0" precision="FP16">
					<dim>32</dim>
					<dim>32</dim>
					<dim>1</dim>
					<dim>1</dim>
				</port>
			</output>
		</layer>
		<layer id="18" name="onnx::Conv_2293" type="Convert" version="opset1">
			<data destination_type="f32" />
			<rt_info>
				<attribute name="decompression" version="0" />
			</rt_info>
			<input>
				<port id="0" precision="FP16">
					<dim>32</dim>
					<dim>32</dim>
					<dim>1</dim>
					<dim>1</dim>
				</port>
			</input>
			<output>
				<port id="1" precision="FP32" names="onnx::Conv_2293">
					<dim>32</dim>
					<dim>32</dim>
					<dim>1</dim>
					<dim>1</dim>
				</port>
			</output>
		</layer>
		<layer id="19" name="/backbone/stage1/unit1/conv1/conv/Conv/WithoutBiases" type="Convolution" version="opset1">
			<data strides="1, 1" dilations="1, 1" pads_begin="0, 0" pads_end="0, 0" auto_pad="explicit" />
			<input>
				<port id="0" precision="FP32">
					<dim>-1</dim>
					<dim>32</dim>
					<dim>368</dim>
					<dim>496</dim>
				</port>
				<port id="1" precision="FP32">
					<dim>32</dim>
					<dim>32</dim>
					<dim>1</dim>
					<dim>1</dim>
				</port>
			</input>
			<output>
				<port id="2" precision="FP32">
					<dim>-1</dim>
					<dim>32</dim>
					<dim>368</dim>
					<dim>496</dim>
				</port>
			</output>
		</layer>
		<layer id="20" name="Reshape_198_compressed" type="Const" version="opset1">
			<data element_type="f16" shape="1, 32, 1, 1" offset="3868" size="64" />
			<output>
				<port id="0" precision="FP16">
					<dim>1</dim>
					<dim>32</dim>
					<dim>1</dim>
					<dim>1</dim>
				</port>
			</output>
		</layer>
		<layer id="21" name="Reshape_198" type="Convert" version="opset1">
			<data destination_type="f32" />
			<rt_info>
				<attribute name="decompression" version="0" />
			</rt_info>
			<input>
				<port id="0" precision="FP16">
					<dim>1</dim>
					<dim>32</dim>
					<dim>1</dim>
					<dim>1</dim>
				</port>
			</input>
			<output>
				<port id="1" precision="FP32">
					<dim>1</dim>
					<dim>32</dim>
					<dim>1</dim>
					<dim>1</dim>
				</port>
			</output>
		</layer>
		<layer id="22" name="/backbone/stage1/unit1/conv1/conv/Conv" type="Add" version="opset1">
			<data auto_broadcast="numpy" />
			<input>
				<port id="0" precision="FP32">
					<dim>-1</dim>
					<dim>32</dim>
					<dim>368</dim>
					<dim>496</dim>
				</port>
				<port id="1" precision="FP32">
					<dim>1</dim>
					<dim>32</dim>
					<dim>1</dim>
					<dim>1</dim>
				</port>
			</input>
			<output>
				<port id="2" precision="FP32" names="/backbone/stage1/unit1/conv1/conv/Conv_output_0">
					<dim>-1</dim>
					<dim>32</dim>
					<dim>368</dim>
					<dim>496</dim>
				</port>
			</output>
		</layer>
		<layer id="23" name="/backbone/stage1/unit1/conv1/activ/Clip" type="Clamp" version="opset1">
			<data min="0" max="6" />
			<input>
				<port id="0" precision="FP32">
					<dim>-1</dim>
					<dim>32</dim>
					<dim>368</dim>
					<dim>496</dim>
				</port>
			</input>
			<output>
				<port id="1" precision="FP32" names="/backbone/stage1/unit1/conv1/activ/Clip_output_0">
					<dim>-1</dim>
					<dim>32</dim>
					<dim>368</dim>
					<dim>496</dim>
				</port>
			</output>
		</layer>
		<layer id="24" name="Reshape_213_compressed" type="Const" version="opset1">
			<data element_type="f16" shape="32, 1, 1, 3, 3" offset="3932" size="576" />
			<output>
				<port id="0" precision="FP16">
					<dim>32</dim>
					<dim>1</dim>
					<dim>1</dim>
					<dim>3</dim>
					<dim>3</dim>
				</port>
			</output>
		</layer>
		<layer id="25" name="Reshape_213" type="Convert" version="opset1">
			<data destination_type="f32" />
			<rt_info>
				<attribute name="decompression" version="0" />
			</rt_info>
			<input>
				<port id="0" precision="FP16">
					<dim>32</dim>
					<dim>1</dim>
					<dim>1</dim>
					<dim>3</dim>
					<dim>3</dim>
				</port>
			</input>
			<output>
				<port id="1" precision="FP32">
					<dim>32</dim>
					<dim>1</dim>
					<dim>1</dim>
					<dim>3</dim>
					<dim>3</dim>
				</port>
			</output>
		</layer>
		<layer id="26" name="/backbone/stage1/unit1/conv2/conv/Conv/WithoutBiases" type="GroupConvolution" version="opset1">
			<data strides="1, 1" pads_begin="1, 1" pads_end="1, 1" dilations="1, 1" auto_pad="explicit" />
			<input>
				<port id="0" precision="FP32">
					<dim>-1</dim>
					<dim>32</dim>
					<dim>368</dim>
					<dim>496</dim>
				</port>
				<port id="1" precision="FP32">
					<dim>32</dim>
					<dim>1</dim>
					<dim>1</dim>
					<dim>3</dim>
					<dim>3</dim>
				</port>
			</input>
			<output>
				<port id="2" precision="FP32">
					<dim>-1</dim>
					<dim>32</dim>
					<dim>368</dim>
					<dim>496</dim>
				</port>
			</output>
		</layer>
		<layer id="27" name="Reshape_265_compressed" type="Const" version="opset1">
			<data element_type="f16" shape="1, 32, 1, 1" offset="4508" size="64" />
			<output>
				<port id="0" precision="FP16">
					<dim>1</dim>
					<dim>32</dim>
					<dim>1</dim>
					<dim>1</dim>
				</port>
			</output>
		</layer>
		<layer id="28" name="Reshape_265" type="Convert" version="opset1">
			<data destination_type="f32" />
			<rt_info>
				<attribute name="decompression" version="0" />
			</rt_info>
			<input>
				<port id="0" precision="FP16">
					<dim>1</dim>
					<dim>32</dim>
					<dim>1</dim>
					<dim>1</dim>
				</port>
			</input>
			<output>
				<port id="1" precision="FP32">
					<dim>1</dim>
					<dim>32</dim>
					<dim>1</dim>
					<dim>1</dim>
				</port>
			</output>
		</layer>
		<layer id="29" name="/backbone/stage1/unit1/conv2/conv/Conv" type="Add" version="opset1">
			<data auto_broadcast="numpy" />
			<input>
				<port id="0" precision="FP32">
					<dim>-1</dim>
					<dim>32</dim>
					<dim>368</dim>
					<dim>496</dim>
				</port>
				<port id="1" precision="FP32">
					<dim>1</dim>
					<dim>32</dim>
					<dim>1</dim>
					<dim>1</dim>
				</port>
			</input>
			<output>
				<port id="2" precision="FP32" names="/backbone/stage1/unit1/conv2/conv/Conv_output_0">
					<dim>-1</dim>
					<dim>32</dim>
					<dim>368</dim>
					<dim>496</dim>
				</port>
			</output>
		</layer>
		<layer id="30" name="/backbone/stage1/unit1/conv2/activ/Clip" type="Clamp" version="opset1">
			<data min="0" max="6" />
			<input>
				<port id="0" precision="FP32">
					<dim>-1</dim>
					<dim>32</dim>
					<dim>368</dim>
					<dim>496</dim>
				</port>
			</input>
			<output>
				<port id="1" precision="FP32" names="/backbone/stage1/unit1/conv2/activ/Clip_output_0">
					<dim>-1</dim>
					<dim>32</dim>
					<dim>368</dim>
					<dim>496</dim>
				</port>
			</output>
		</layer>
		<layer id="31" name="onnx::Conv_2299_compressed" type="Const" version="opset1">
			<data element_type="f16" shape="16, 32, 1, 1" offset="4572" size="1024" />
			<output>
				<port id="0" precision="FP16">
					<dim>16</dim>
					<dim>32</dim>
					<dim>1</dim>
					<dim>1</dim>
				</port>
			</output>
		</layer>
		<layer id="32" name="onnx::Conv_2299" type="Convert" version="opset1">
			<data destination_type="f32" />
			<rt_info>
				<attribute name="decompression" version="0" />
			</rt_info>
			<input>
				<port id="0" precision="FP16">
					<dim>16</dim>
					<dim>32</dim>
					<dim>1</dim>
					<dim>1</dim>
				</port>
			</input>
			<output>
				<port id="1" precision="FP32" names="onnx::Conv_2299">
					<dim>16</dim>
					<dim>32</dim>
					<dim>1</dim>
					<dim>1</dim>
				</port>
			</output>
		</layer>
		<layer id="33" name="/backbone/stage1/unit1/conv3/conv/Conv/WithoutBiases" type="Convolution" version="opset1">
			<data strides="1, 1" dilations="1, 1" pads_begin="0, 0" pads_end="0, 0" auto_pad="explicit" />
			<input>
				<port id="0" precision="FP32">
					<dim>-1</dim>
					<dim>32</dim>
					<dim>368</dim>
					<dim>496</dim>
				</port>
				<port id="1" precision="FP32">
					<dim>16</dim>
					<dim>32</dim>
					<dim>1</dim>
					<dim>1</dim>
				</port>
			</input>
			<output>
				<port id="2" precision="FP32">
					<dim>-1</dim>
					<dim>16</dim>
					<dim>368</dim>
					<dim>496</dim>
				</port>
			</output>
		</layer>
		<layer id="34" name="Reshape_285_compressed" type="Const" version="opset1">
			<data element_type="f16" shape="1, 16, 1, 1" offset="5596" size="32" />
			<output>
				<port id="0" precision="FP16">
					<dim>1</dim>
					<dim>16</dim>
					<dim>1</dim>
					<dim>1</dim>
				</port>
			</output>
		</layer>
		<layer id="35" name="Reshape_285" type="Convert" version="opset1">
			<data destination_type="f32" />
			<rt_info>
				<attribute name="decompression" version="0" />
			</rt_info>
			<input>
				<port id="0" precision="FP16">
					<dim>1</dim>
					<dim>16</dim>
					<dim>1</dim>
					<dim>1</dim>
				</port>
			</input>
			<output>
				<port id="1" precision="FP32">
					<dim>1</dim>
					<dim>16</dim>
					<dim>1</dim>
					<dim>1</dim>
				</port>
			</output>
		</layer>
		<layer id="36" name="/backbone/stage1/unit1/conv3/conv/Conv" type="Add" version="opset1">
			<data auto_broadcast="numpy" />
			<input>
				<port id="0" precision="FP32">
					<dim>-1</dim>
					<dim>16</dim>
					<dim>368</dim>
					<dim>496</dim>
				</port>
				<port id="1" precision="FP32">
					<dim>1</dim>
					<dim>16</dim>
					<dim>1</dim>
					<dim>1</dim>
				</port>
			</input>
			<output>
				<port id="2" precision="FP32" names="/backbone/stage1/unit1/conv3/conv/Conv_output_0">
					<dim>-1</dim>
					<dim>16</dim>
					<dim>368</dim>
					<dim>496</dim>
				</port>
			</output>
		</layer>
		<layer id="37" name="onnx::Conv_2302_compressed" type="Const" version="opset1">
			<data element_type="f16" shape="96, 16, 1, 1" offset="5628" size="3072" />
			<output>
				<port id="0" precision="FP16">
					<dim>96</dim>
					<dim>16</dim>
					<dim>1</dim>
					<dim>1</dim>
				</port>
			</output>
		</layer>
		<layer id="38" name="onnx::Conv_2302" type="Convert" version="opset1">
			<data destination_type="f32" />
			<rt_info>
				<attribute name="decompression" version="0" />
			</rt_info>
			<input>
				<port id="0" precision="FP16">
					<dim>96</dim>
					<dim>16</dim>
					<dim>1</dim>
					<dim>1</dim>
				</port>
			</input>
			<output>
				<port id="1" precision="FP32" names="onnx::Conv_2302">
					<dim>96</dim>
					<dim>16</dim>
					<dim>1</dim>
					<dim>1</dim>
				</port>
			</output>
		</layer>
		<layer id="39" name="/backbone/stage2/unit1/conv1/conv/Conv/WithoutBiases" type="Convolution" version="opset1">
			<data strides="1, 1" dilations="1, 1" pads_begin="0, 0" pads_end="0, 0" auto_pad="explicit" />
			<input>
				<port id="0" precision="FP32">
					<dim>-1</dim>
					<dim>16</dim>
					<dim>368</dim>
					<dim>496</dim>
				</port>
				<port id="1" precision="FP32">
					<dim>96</dim>
					<dim>16</dim>
					<dim>1</dim>
					<dim>1</dim>
				</port>
			</input>
			<output>
				<port id="2" precision="FP32">
					<dim>-1</dim>
					<dim>96</dim>
					<dim>368</dim>
					<dim>496</dim>
				</port>
			</output>
		</layer>
		<layer id="40" name="Reshape_301_compressed" type="Const" version="opset1">
			<data element_type="f16" shape="1, 96, 1, 1" offset="8700" size="192" />
			<output>
				<port id="0" precision="FP16">
					<dim>1</dim>
					<dim>96</dim>
					<dim>1</dim>
					<dim>1</dim>
				</port>
			</output>
		</layer>
		<layer id="41" name="Reshape_301" type="Convert" version="opset1">
			<data destination_type="f32" />
			<rt_info>
				<attribute name="decompression" version="0" />
			</rt_info>
			<input>
				<port id="0" precision="FP16">
					<dim>1</dim>
					<dim>96</dim>
					<dim>1</dim>
					<dim>1</dim>
				</port>
			</input>
			<output>
				<port id="1" precision="FP32">
					<dim>1</dim>
					<dim>96</dim>
					<dim>1</dim>
					<dim>1</dim>
				</port>
			</output>
		</layer>
		<layer id="42" name="/backbone/stage2/unit1/conv1/conv/Conv" type="Add" version="opset1">
			<data auto_broadcast="numpy" />
			<input>
				<port id="0" precision="FP32">
					<dim>-1</dim>
					<dim>96</dim>
					<dim>368</dim>
					<dim>496</dim>
				</port>
				<port id="1" precision="FP32">
					<dim>1</dim>
					<dim>96</dim>
					<dim>1</dim>
					<dim>1</dim>
				</port>
			</input>
			<output>
				<port id="2" precision="FP32" names="/backbone/stage2/unit1/conv1/conv/Conv_output_0">
					<dim>-1</dim>
					<dim>96</dim>
					<dim>368</dim>
					<dim>496</dim>
				</port>
			</output>
		</layer>
		<layer id="43" name="/backbone/stage2/unit1/conv1/activ/Clip" type="Clamp" version="opset1">
			<data min="0" max="6" />
			<input>
				<port id="0" precision="FP32">
					<dim>-1</dim>
					<dim>96</dim>
					<dim>368</dim>
					<dim>496</dim>
				</port>
			</input>
			<output>
				<port id="1" precision="FP32" names="/backbone/stage2/unit1/conv1/activ/Clip_output_0">
					<dim>-1</dim>
					<dim>96</dim>
					<dim>368</dim>
					<dim>496</dim>
				</port>
			</output>
		</layer>
		<layer id="44" name="Reshape_316_compressed" type="Const" version="opset1">
			<data element_type="f16" shape="96, 1, 1, 3, 3" offset="8892" size="1728" />
			<output>
				<port id="0" precision="FP16">
					<dim>96</dim>
					<dim>1</dim>
					<dim>1</dim>
					<dim>3</dim>
					<dim>3</dim>
				</port>
			</output>
		</layer>
		<layer id="45" name="Reshape_316" type="Convert" version="opset1">
			<data destination_type="f32" />
			<rt_info>
				<attribute name="decompression" version="0" />
			</rt_info>
			<input>
				<port id="0" precision="FP16">
					<dim>96</dim>
					<dim>1</dim>
					<dim>1</dim>
					<dim>3</dim>
					<dim>3</dim>
				</port>
			</input>
			<output>
				<port id="1" precision="FP32">
					<dim>96</dim>
					<dim>1</dim>
					<dim>1</dim>
					<dim>3</dim>
					<dim>3</dim>
				</port>
			</output>
		</layer>
		<layer id="46" name="/backbone/stage2/unit1/conv2/conv/Conv/WithoutBiases" type="GroupConvolution" version="opset1">
			<data strides="2, 2" pads_begin="1, 1" pads_end="1, 1" dilations="1, 1" auto_pad="explicit" />
			<input>
				<port id="0" precision="FP32">
					<dim>-1</dim>
					<dim>96</dim>
					<dim>368</dim>
					<dim>496</dim>
				</port>
				<port id="1" precision="FP32">
					<dim>96</dim>
					<dim>1</dim>
					<dim>1</dim>
					<dim>3</dim>
					<dim>3</dim>
				</port>
			</input>
			<output>
				<port id="2" precision="FP32">
					<dim>-1</dim>
					<dim>96</dim>
					<dim>184</dim>
					<dim>248</dim>
				</port>
			</output>
		</layer>
		<layer id="47" name="Reshape_368_compressed" type="Const" version="opset1">
			<data element_type="f16" shape="1, 96, 1, 1" offset="10620" size="192" />
			<output>
				<port id="0" precision="FP16">
					<dim>1</dim>
					<dim>96</dim>
					<dim>1</dim>
					<dim>1</dim>
				</port>
			</output>
		</layer>
		<layer id="48" name="Reshape_368" type="Convert" version="opset1">
			<data destination_type="f32" />
			<rt_info>
				<attribute name="decompression" version="0" />
			</rt_info>
			<input>
				<port id="0" precision="FP16">
					<dim>1</dim>
					<dim>96</dim>
					<dim>1</dim>
					<dim>1</dim>
				</port>
			</input>
			<output>
				<port id="1" precision="FP32">
					<dim>1</dim>
					<dim>96</dim>
					<dim>1</dim>
					<dim>1</dim>
				</port>
			</output>
		</layer>
		<layer id="49" name="/backbone/stage2/unit1/conv2/conv/Conv" type="Add" version="opset1">
			<data auto_broadcast="numpy" />
			<input>
				<port id="0" precision="FP32">
					<dim>-1</dim>
					<dim>96</dim>
					<dim>184</dim>
					<dim>248</dim>
				</port>
				<port id="1" precision="FP32">
					<dim>1</dim>
					<dim>96</dim>
					<dim>1</dim>
					<dim>1</dim>
				</port>
			</input>
			<output>
				<port id="2" precision="FP32" names="/backbone/stage2/unit1/conv2/conv/Conv_output_0">
					<dim>-1</dim>
					<dim>96</dim>
					<dim>184</dim>
					<dim>248</dim>
				</port>
			</output>
		</layer>
		<layer id="50" name="/backbone/stage2/unit1/conv2/activ/Clip" type="Clamp" version="opset1">
			<data min="0" max="6" />
			<input>
				<port id="0" precision="FP32">
					<dim>-1</dim>
					<dim>96</dim>
					<dim>184</dim>
					<dim>248</dim>
				</port>
			</input>
			<output>
				<port id="1" precision="FP32" names="/backbone/stage2/unit1/conv2/activ/Clip_output_0">
					<dim>-1</dim>
					<dim>96</dim>
					<dim>184</dim>
					<dim>248</dim>
				</port>
			</output>
		</layer>
		<layer id="51" name="onnx::Conv_2308_compressed" type="Const" version="opset1">
			<data element_type="f16" shape="24, 96, 1, 1" offset="10812" size="4608" />
			<output>
				<port id="0" precision="FP16">
					<dim>24</dim>
					<dim>96</dim>
					<dim>1</dim>
					<dim>1</dim>
				</port>
			</output>
		</layer>
		<layer id="52" name="onnx::Conv_2308" type="Convert" version="opset1">
			<data destination_type="f32" />
			<rt_info>
				<attribute name="decompression" version="0" />
			</rt_info>
			<input>
				<port id="0" precision="FP16">
					<dim>24</dim>
					<dim>96</dim>
					<dim>1</dim>
					<dim>1</dim>
				</port>
			</input>
			<output>
				<port id="1" precision="FP32" names="onnx::Conv_2308">
					<dim>24</dim>
					<dim>96</dim>
					<dim>1</dim>
					<dim>1</dim>
				</port>
			</output>
		</layer>
		<layer id="53" name="/backbone/stage2/unit1/conv3/conv/Conv/WithoutBiases" type="Convolution" version="opset1">
			<data strides="1, 1" dilations="1, 1" pads_begin="0, 0" pads_end="0, 0" auto_pad="explicit" />
			<input>
				<port id="0" precision="FP32">
					<dim>-1</dim>
					<dim>96</dim>
					<dim>184</dim>
					<dim>248</dim>
				</port>
				<port id="1" precision="FP32">
					<dim>24</dim>
					<dim>96</dim>
					<dim>1</dim>
					<dim>1</dim>
				</port>
			</input>
			<output>
				<port id="2" precision="FP32">
					<dim>-1</dim>
					<dim>24</dim>
					<dim>184</dim>
					<dim>248</dim>
				</port>
			</output>
		</layer>
		<layer id="54" name="Reshape_388_compressed" type="Const" version="opset1">
			<data element_type="f16" shape="1, 24, 1, 1" offset="15420" size="48" />
			<output>
				<port id="0" precision="FP16">
					<dim>1</dim>
					<dim>24</dim>
					<dim>1</dim>
					<dim>1</dim>
				</port>
			</output>
		</layer>
		<layer id="55" name="Reshape_388" type="Convert" version="opset1">
			<data destination_type="f32" />
			<rt_info>
				<attribute name="decompression" version="0" />
			</rt_info>
			<input>
				<port id="0" precision="FP16">
					<dim>1</dim>
					<dim>24</dim>
					<dim>1</dim>
					<dim>1</dim>
				</port>
			</input>
			<output>
				<port id="1" precision="FP32">
					<dim>1</dim>
					<dim>24</dim>
					<dim>1</dim>
					<dim>1</dim>
				</port>
			</output>
		</layer>
		<layer id="56" name="/backbone/stage2/unit1/conv3/conv/Conv" type="Add" version="opset1">
			<data auto_broadcast="numpy" />
			<input>
				<port id="0" precision="FP32">
					<dim>-1</dim>
					<dim>24</dim>
					<dim>184</dim>
					<dim>248</dim>
				</port>
				<port id="1" precision="FP32">
					<dim>1</dim>
					<dim>24</dim>
					<dim>1</dim>
					<dim>1</dim>
				</port>
			</input>
			<output>
				<port id="2" precision="FP32" names="/backbone/stage2/unit1/conv3/conv/Conv_output_0">
					<dim>-1</dim>
					<dim>24</dim>
					<dim>184</dim>
					<dim>248</dim>
				</port>
			</output>
		</layer>
		<layer id="57" name="onnx::Conv_2311_compressed" type="Const" version="opset1">
			<data element_type="f16" shape="144, 24, 1, 1" offset="15468" size="6912" />
			<output>
				<port id="0" precision="FP16">
					<dim>144</dim>
					<dim>24</dim>
					<dim>1</dim>
					<dim>1</dim>
				</port>
			</output>
		</layer>
		<layer id="58" name="onnx::Conv_2311" type="Convert" version="opset1">
			<data destination_type="f32" />
			<rt_info>
				<attribute name="decompression" version="0" />
			</rt_info>
			<input>
				<port id="0" precision="FP16">
					<dim>144</dim>
					<dim>24</dim>
					<dim>1</dim>
					<dim>1</dim>
				</port>
			</input>
			<output>
				<port id="1" precision="FP32" names="onnx::Conv_2311">
					<dim>144</dim>
					<dim>24</dim>
					<dim>1</dim>
					<dim>1</dim>
				</port>
			</output>
		</layer>
		<layer id="59" name="/backbone/stage2/unit2/conv1/conv/Conv/WithoutBiases" type="Convolution" version="opset1">
			<data strides="1, 1" dilations="1, 1" pads_begin="0, 0" pads_end="0, 0" auto_pad="explicit" />
			<input>
				<port id="0" precision="FP32">
					<dim>-1</dim>
					<dim>24</dim>
					<dim>184</dim>
					<dim>248</dim>
				</port>
				<port id="1" precision="FP32">
					<dim>144</dim>
					<dim>24</dim>
					<dim>1</dim>
					<dim>1</dim>
				</port>
			</input>
			<output>
				<port id="2" precision="FP32">
					<dim>-1</dim>
					<dim>144</dim>
					<dim>184</dim>
					<dim>248</dim>
				</port>
			</output>
		</layer>
		<layer id="60" name="Reshape_404_compressed" type="Const" version="opset1">
			<data element_type="f16" shape="1, 144, 1, 1" offset="22380" size="288" />
			<output>
				<port id="0" precision="FP16">
					<dim>1</dim>
					<dim>144</dim>
					<dim>1</dim>
					<dim>1</dim>
				</port>
			</output>
		</layer>
		<layer id="61" name="Reshape_404" type="Convert" version="opset1">
			<data destination_type="f32" />
			<rt_info>
				<attribute name="decompression" version="0" />
			</rt_info>
			<input>
				<port id="0" precision="FP16">
					<dim>1</dim>
					<dim>144</dim>
					<dim>1</dim>
					<dim>1</dim>
				</port>
			</input>
			<output>
				<port id="1" precision="FP32">
					<dim>1</dim>
					<dim>144</dim>
					<dim>1</dim>
					<dim>1</dim>
				</port>
			</output>
		</layer>
		<layer id="62" name="/backbone/stage2/unit2/conv1/conv/Conv" type="Add" version="opset1">
			<data auto_broadcast="numpy" />
			<input>
				<port id="0" precision="FP32">
					<dim>-1</dim>
					<dim>144</dim>
					<dim>184</dim>
					<dim>248</dim>
				</port>
				<port id="1" precision="FP32">
					<dim>1</dim>
					<dim>144</dim>
					<dim>1</dim>
					<dim>1</dim>
				</port>
			</input>
			<output>
				<port id="2" precision="FP32" names="/backbone/stage2/unit2/conv1/conv/Conv_output_0">
					<dim>-1</dim>
					<dim>144</dim>
					<dim>184</dim>
					<dim>248</dim>
				</port>
			</output>
		</layer>
		<layer id="63" name="/backbone/stage2/unit2/conv1/activ/Clip" type="Clamp" version="opset1">
			<data min="0" max="6" />
			<input>
				<port id="0" precision="FP32">
					<dim>-1</dim>
					<dim>144</dim>
					<dim>184</dim>
					<dim>248</dim>
				</port>
			</input>
			<output>
				<port id="1" precision="FP32" names="/backbone/stage2/unit2/conv1/activ/Clip_output_0">
					<dim>-1</dim>
					<dim>144</dim>
					<dim>184</dim>
					<dim>248</dim>
				</port>
			</output>
		</layer>
		<layer id="64" name="Reshape_419_compressed" type="Const" version="opset1">
			<data element_type="f16" shape="144, 1, 1, 3, 3" offset="22668" size="2592" />
			<output>
				<port id="0" precision="FP16">
					<dim>144</dim>
					<dim>1</dim>
					<dim>1</dim>
					<dim>3</dim>
					<dim>3</dim>
				</port>
			</output>
		</layer>
		<layer id="65" name="Reshape_419" type="Convert" version="opset1">
			<data destination_type="f32" />
			<rt_info>
				<attribute name="decompression" version="0" />
			</rt_info>
			<input>
				<port id="0" precision="FP16">
					<dim>144</dim>
					<dim>1</dim>
					<dim>1</dim>
					<dim>3</dim>
					<dim>3</dim>
				</port>
			</input>
			<output>
				<port id="1" precision="FP32">
					<dim>144</dim>
					<dim>1</dim>
					<dim>1</dim>
					<dim>3</dim>
					<dim>3</dim>
				</port>
			</output>
		</layer>
		<layer id="66" name="/backbone/stage2/unit2/conv2/conv/Conv/WithoutBiases" type="GroupConvolution" version="opset1">
			<data strides="1, 1" pads_begin="1, 1" pads_end="1, 1" dilations="1, 1" auto_pad="explicit" />
			<input>
				<port id="0" precision="FP32">
					<dim>-1</dim>
					<dim>144</dim>
					<dim>184</dim>
					<dim>248</dim>
				</port>
				<port id="1" precision="FP32">
					<dim>144</dim>
					<dim>1</dim>
					<dim>1</dim>
					<dim>3</dim>
					<dim>3</dim>
				</port>
			</input>
			<output>
				<port id="2" precision="FP32">
					<dim>-1</dim>
					<dim>144</dim>
					<dim>184</dim>
					<dim>248</dim>
				</port>
			</output>
		</layer>
		<layer id="67" name="Reshape_471_compressed" type="Const" version="opset1">
			<data element_type="f16" shape="1, 144, 1, 1" offset="25260" size="288" />
			<output>
				<port id="0" precision="FP16">
					<dim>1</dim>
					<dim>144</dim>
					<dim>1</dim>
					<dim>1</dim>
				</port>
			</output>
		</layer>
		<layer id="68" name="Reshape_471" type="Convert" version="opset1">
			<data destination_type="f32" />
			<rt_info>
				<attribute name="decompression" version="0" />
			</rt_info>
			<input>
				<port id="0" precision="FP16">
					<dim>1</dim>
					<dim>144</dim>
					<dim>1</dim>
					<dim>1</dim>
				</port>
			</input>
			<output>
				<port id="1" precision="FP32">
					<dim>1</dim>
					<dim>144</dim>
					<dim>1</dim>
					<dim>1</dim>
				</port>
			</output>
		</layer>
		<layer id="69" name="/backbone/stage2/unit2/conv2/conv/Conv" type="Add" version="opset1">
			<data auto_broadcast="numpy" />
			<input>
				<port id="0" precision="FP32">
					<dim>-1</dim>
					<dim>144</dim>
					<dim>184</dim>
					<dim>248</dim>
				</port>
				<port id="1" precision="FP32">
					<dim>1</dim>
					<dim>144</dim>
					<dim>1</dim>
					<dim>1</dim>
				</port>
			</input>
			<output>
				<port id="2" precision="FP32" names="/backbone/stage2/unit2/conv2/conv/Conv_output_0">
					<dim>-1</dim>
					<dim>144</dim>
					<dim>184</dim>
					<dim>248</dim>
				</port>
			</output>
		</layer>
		<layer id="70" name="/backbone/stage2/unit2/conv2/activ/Clip" type="Clamp" version="opset1">
			<data min="0" max="6" />
			<input>
				<port id="0" precision="FP32">
					<dim>-1</dim>
					<dim>144</dim>
					<dim>184</dim>
					<dim>248</dim>
				</port>
			</input>
			<output>
				<port id="1" precision="FP32" names="/backbone/stage2/unit2/conv2/activ/Clip_output_0">
					<dim>-1</dim>
					<dim>144</dim>
					<dim>184</dim>
					<dim>248</dim>
				</port>
			</output>
		</layer>
		<layer id="71" name="onnx::Conv_2317_compressed" type="Const" version="opset1">
			<data element_type="f16" shape="24, 144, 1, 1" offset="25548" size="6912" />
			<output>
				<port id="0" precision="FP16">
					<dim>24</dim>
					<dim>144</dim>
					<dim>1</dim>
					<dim>1</dim>
				</port>
			</output>
		</layer>
		<layer id="72" name="onnx::Conv_2317" type="Convert" version="opset1">
			<data destination_type="f32" />
			<rt_info>
				<attribute name="decompression" version="0" />
			</rt_info>
			<input>
				<port id="0" precision="FP16">
					<dim>24</dim>
					<dim>144</dim>
					<dim>1</dim>
					<dim>1</dim>
				</port>
			</input>
			<output>
				<port id="1" precision="FP32" names="onnx::Conv_2317">
					<dim>24</dim>
					<dim>144</dim>
					<dim>1</dim>
					<dim>1</dim>
				</port>
			</output>
		</layer>
		<layer id="73" name="/backbone/stage2/unit2/conv3/conv/Conv/WithoutBiases" type="Convolution" version="opset1">
			<data strides="1, 1" dilations="1, 1" pads_begin="0, 0" pads_end="0, 0" auto_pad="explicit" />
			<input>
				<port id="0" precision="FP32">
					<dim>-1</dim>
					<dim>144</dim>
					<dim>184</dim>
					<dim>248</dim>
				</port>
				<port id="1" precision="FP32">
					<dim>24</dim>
					<dim>144</dim>
					<dim>1</dim>
					<dim>1</dim>
				</port>
			</input>
			<output>
				<port id="2" precision="FP32">
					<dim>-1</dim>
					<dim>24</dim>
					<dim>184</dim>
					<dim>248</dim>
				</port>
			</output>
		</layer>
		<layer id="74" name="Reshape_491_compressed" type="Const" version="opset1">
			<data element_type="f16" shape="1, 24, 1, 1" offset="32460" size="48" />
			<output>
				<port id="0" precision="FP16">
					<dim>1</dim>
					<dim>24</dim>
					<dim>1</dim>
					<dim>1</dim>
				</port>
			</output>
		</layer>
		<layer id="75" name="Reshape_491" type="Convert" version="opset1">
			<data destination_type="f32" />
			<rt_info>
				<attribute name="decompression" version="0" />
			</rt_info>
			<input>
				<port id="0" precision="FP16">
					<dim>1</dim>
					<dim>24</dim>
					<dim>1</dim>
					<dim>1</dim>
				</port>
			</input>
			<output>
				<port id="1" precision="FP32">
					<dim>1</dim>
					<dim>24</dim>
					<dim>1</dim>
					<dim>1</dim>
				</port>
			</output>
		</layer>
		<layer id="76" name="/backbone/stage2/unit2/conv3/conv/Conv" type="Add" version="opset1">
			<data auto_broadcast="numpy" />
			<input>
				<port id="0" precision="FP32">
					<dim>-1</dim>
					<dim>24</dim>
					<dim>184</dim>
					<dim>248</dim>
				</port>
				<port id="1" precision="FP32">
					<dim>1</dim>
					<dim>24</dim>
					<dim>1</dim>
					<dim>1</dim>
				</port>
			</input>
			<output>
				<port id="2" precision="FP32" names="/backbone/stage2/unit2/conv3/conv/Conv_output_0">
					<dim>-1</dim>
					<dim>24</dim>
					<dim>184</dim>
					<dim>248</dim>
				</port>
			</output>
		</layer>
		<layer id="77" name="/backbone/stage2/unit2/Add" type="Add" version="opset1">
			<data auto_broadcast="numpy" />
			<input>
				<port id="0" precision="FP32">
					<dim>-1</dim>
					<dim>24</dim>
					<dim>184</dim>
					<dim>248</dim>
				</port>
				<port id="1" precision="FP32">
					<dim>-1</dim>
					<dim>24</dim>
					<dim>184</dim>
					<dim>248</dim>
				</port>
			</input>
			<output>
				<port id="2" precision="FP32" names="/backbone/stage2/unit2/Add_output_0">
					<dim>-1</dim>
					<dim>24</dim>
					<dim>184</dim>
					<dim>248</dim>
				</port>
			</output>
		</layer>
		<layer id="78" name="onnx::Conv_2320_compressed" type="Const" version="opset1">
			<data element_type="f16" shape="144, 24, 1, 1" offset="32508" size="6912" />
			<output>
				<port id="0" precision="FP16">
					<dim>144</dim>
					<dim>24</dim>
					<dim>1</dim>
					<dim>1</dim>
				</port>
			</output>
		</layer>
		<layer id="79" name="onnx::Conv_2320" type="Convert" version="opset1">
			<data destination_type="f32" />
			<rt_info>
				<attribute name="decompression" version="0" />
			</rt_info>
			<input>
				<port id="0" precision="FP16">
					<dim>144</dim>
					<dim>24</dim>
					<dim>1</dim>
					<dim>1</dim>
				</port>
			</input>
			<output>
				<port id="1" precision="FP32" names="onnx::Conv_2320">
					<dim>144</dim>
					<dim>24</dim>
					<dim>1</dim>
					<dim>1</dim>
				</port>
			</output>
		</layer>
		<layer id="80" name="/backbone/stage3/unit1/conv1/conv/Conv/WithoutBiases" type="Convolution" version="opset1">
			<data strides="1, 1" dilations="1, 1" pads_begin="0, 0" pads_end="0, 0" auto_pad="explicit" />
			<input>
				<port id="0" precision="FP32">
					<dim>-1</dim>
					<dim>24</dim>
					<dim>184</dim>
					<dim>248</dim>
				</port>
				<port id="1" precision="FP32">
					<dim>144</dim>
					<dim>24</dim>
					<dim>1</dim>
					<dim>1</dim>
				</port>
			</input>
			<output>
				<port id="2" precision="FP32">
					<dim>-1</dim>
					<dim>144</dim>
					<dim>184</dim>
					<dim>248</dim>
				</port>
			</output>
		</layer>
		<layer id="81" name="Reshape_508_compressed" type="Const" version="opset1">
			<data element_type="f16" shape="1, 144, 1, 1" offset="39420" size="288" />
			<output>
				<port id="0" precision="FP16">
					<dim>1</dim>
					<dim>144</dim>
					<dim>1</dim>
					<dim>1</dim>
				</port>
			</output>
		</layer>
		<layer id="82" name="Reshape_508" type="Convert" version="opset1">
			<data destination_type="f32" />
			<rt_info>
				<attribute name="decompression" version="0" />
			</rt_info>
			<input>
				<port id="0" precision="FP16">
					<dim>1</dim>
					<dim>144</dim>
					<dim>1</dim>
					<dim>1</dim>
				</port>
			</input>
			<output>
				<port id="1" precision="FP32">
					<dim>1</dim>
					<dim>144</dim>
					<dim>1</dim>
					<dim>1</dim>
				</port>
			</output>
		</layer>
		<layer id="83" name="/backbone/stage3/unit1/conv1/conv/Conv" type="Add" version="opset1">
			<data auto_broadcast="numpy" />
			<input>
				<port id="0" precision="FP32">
					<dim>-1</dim>
					<dim>144</dim>
					<dim>184</dim>
					<dim>248</dim>
				</port>
				<port id="1" precision="FP32">
					<dim>1</dim>
					<dim>144</dim>
					<dim>1</dim>
					<dim>1</dim>
				</port>
			</input>
			<output>
				<port id="2" precision="FP32" names="/backbone/stage3/unit1/conv1/conv/Conv_output_0">
					<dim>-1</dim>
					<dim>144</dim>
					<dim>184</dim>
					<dim>248</dim>
				</port>
			</output>
		</layer>
		<layer id="84" name="/backbone/stage3/unit1/conv1/activ/Clip" type="Clamp" version="opset1">
			<data min="0" max="6" />
			<input>
				<port id="0" precision="FP32">
					<dim>-1</dim>
					<dim>144</dim>
					<dim>184</dim>
					<dim>248</dim>
				</port>
			</input>
			<output>
				<port id="1" precision="FP32" names="/backbone/stage3/unit1/conv1/activ/Clip_output_0">
					<dim>-1</dim>
					<dim>144</dim>
					<dim>184</dim>
					<dim>248</dim>
				</port>
			</output>
		</layer>
		<layer id="85" name="Reshape_523_compressed" type="Const" version="opset1">
			<data element_type="f16" shape="144, 1, 1, 3, 3" offset="39708" size="2592" />
			<output>
				<port id="0" precision="FP16">
					<dim>144</dim>
					<dim>1</dim>
					<dim>1</dim>
					<dim>3</dim>
					<dim>3</dim>
				</port>
			</output>
		</layer>
		<layer id="86" name="Reshape_523" type="Convert" version="opset1">
			<data destination_type="f32" />
			<rt_info>
				<attribute name="decompression" version="0" />
			</rt_info>
			<input>
				<port id="0" precision="FP16">
					<dim>144</dim>
					<dim>1</dim>
					<dim>1</dim>
					<dim>3</dim>
					<dim>3</dim>
				</port>
			</input>
			<output>
				<port id="1" precision="FP32">
					<dim>144</dim>
					<dim>1</dim>
					<dim>1</dim>
					<dim>3</dim>
					<dim>3</dim>
				</port>
			</output>
		</layer>
		<layer id="87" name="/backbone/stage3/unit1/conv2/conv/Conv/WithoutBiases" type="GroupConvolution" version="opset1">
			<data strides="2, 2" pads_begin="1, 1" pads_end="1, 1" dilations="1, 1" auto_pad="explicit" />
			<input>
				<port id="0" precision="FP32">
					<dim>-1</dim>
					<dim>144</dim>
					<dim>184</dim>
					<dim>248</dim>
				</port>
				<port id="1" precision="FP32">
					<dim>144</dim>
					<dim>1</dim>
					<dim>1</dim>
					<dim>3</dim>
					<dim>3</dim>
				</port>
			</input>
			<output>
				<port id="2" precision="FP32">
					<dim>-1</dim>
					<dim>144</dim>
					<dim>92</dim>
					<dim>124</dim>
				</port>
			</output>
		</layer>
		<layer id="88" name="Reshape_575_compressed" type="Const" version="opset1">
			<data element_type="f16" shape="1, 144, 1, 1" offset="42300" size="288" />
			<output>
				<port id="0" precision="FP16">
					<dim>1</dim>
					<dim>144</dim>
					<dim>1</dim>
					<dim>1</dim>
				</port>
			</output>
		</layer>
		<layer id="89" name="Reshape_575" type="Convert" version="opset1">
			<data destination_type="f32" />
			<rt_info>
				<attribute name="decompression" version="0" />
			</rt_info>
			<input>
				<port id="0" precision="FP16">
					<dim>1</dim>
					<dim>144</dim>
					<dim>1</dim>
					<dim>1</dim>
				</port>
			</input>
			<output>
				<port id="1" precision="FP32">
					<dim>1</dim>
					<dim>144</dim>
					<dim>1</dim>
					<dim>1</dim>
				</port>
			</output>
		</layer>
		<layer id="90" name="/backbone/stage3/unit1/conv2/conv/Conv" type="Add" version="opset1">
			<data auto_broadcast="numpy" />
			<input>
				<port id="0" precision="FP32">
					<dim>-1</dim>
					<dim>144</dim>
					<dim>92</dim>
					<dim>124</dim>
				</port>
				<port id="1" precision="FP32">
					<dim>1</dim>
					<dim>144</dim>
					<dim>1</dim>
					<dim>1</dim>
				</port>
			</input>
			<output>
				<port id="2" precision="FP32" names="/backbone/stage3/unit1/conv2/conv/Conv_output_0">
					<dim>-1</dim>
					<dim>144</dim>
					<dim>92</dim>
					<dim>124</dim>
				</port>
			</output>
		</layer>
		<layer id="91" name="/backbone/stage3/unit1/conv2/activ/Clip" type="Clamp" version="opset1">
			<data min="0" max="6" />
			<input>
				<port id="0" precision="FP32">
					<dim>-1</dim>
					<dim>144</dim>
					<dim>92</dim>
					<dim>124</dim>
				</port>
			</input>
			<output>
				<port id="1" precision="FP32" names="/backbone/stage3/unit1/conv2/activ/Clip_output_0">
					<dim>-1</dim>
					<dim>144</dim>
					<dim>92</dim>
					<dim>124</dim>
				</port>
			</output>
		</layer>
		<layer id="92" name="onnx::Conv_2326_compressed" type="Const" version="opset1">
			<data element_type="f16" shape="32, 144, 1, 1" offset="42588" size="9216" />
			<output>
				<port id="0" precision="FP16">
					<dim>32</dim>
					<dim>144</dim>
					<dim>1</dim>
					<dim>1</dim>
				</port>
			</output>
		</layer>
		<layer id="93" name="onnx::Conv_2326" type="Convert" version="opset1">
			<data destination_type="f32" />
			<rt_info>
				<attribute name="decompression" version="0" />
			</rt_info>
			<input>
				<port id="0" precision="FP16">
					<dim>32</dim>
					<dim>144</dim>
					<dim>1</dim>
					<dim>1</dim>
				</port>
			</input>
			<output>
				<port id="1" precision="FP32" names="onnx::Conv_2326">
					<dim>32</dim>
					<dim>144</dim>
					<dim>1</dim>
					<dim>1</dim>
				</port>
			</output>
		</layer>
		<layer id="94" name="/backbone/stage3/unit1/conv3/conv/Conv/WithoutBiases" type="Convolution" version="opset1">
			<data strides="1, 1" dilations="1, 1" pads_begin="0, 0" pads_end="0, 0" auto_pad="explicit" />
			<input>
				<port id="0" precision="FP32">
					<dim>-1</dim>
					<dim>144</dim>
					<dim>92</dim>
					<dim>124</dim>
				</port>
				<port id="1" precision="FP32">
					<dim>32</dim>
					<dim>144</dim>
					<dim>1</dim>
					<dim>1</dim>
				</port>
			</input>
			<output>
				<port id="2" precision="FP32">
					<dim>-1</dim>
					<dim>32</dim>
					<dim>92</dim>
					<dim>124</dim>
				</port>
			</output>
		</layer>
		<layer id="95" name="Reshape_595_compressed" type="Const" version="opset1">
			<data element_type="f16" shape="1, 32, 1, 1" offset="51804" size="64" />
			<output>
				<port id="0" precision="FP16">
					<dim>1</dim>
					<dim>32</dim>
					<dim>1</dim>
					<dim>1</dim>
				</port>
			</output>
		</layer>
		<layer id="96" name="Reshape_595" type="Convert" version="opset1">
			<data destination_type="f32" />
			<rt_info>
				<attribute name="decompression" version="0" />
			</rt_info>
			<input>
				<port id="0" precision="FP16">
					<dim>1</dim>
					<dim>32</dim>
					<dim>1</dim>
					<dim>1</dim>
				</port>
			</input>
			<output>
				<port id="1" precision="FP32">
					<dim>1</dim>
					<dim>32</dim>
					<dim>1</dim>
					<dim>1</dim>
				</port>
			</output>
		</layer>
		<layer id="97" name="/backbone/stage3/unit1/conv3/conv/Conv" type="Add" version="opset1">
			<data auto_broadcast="numpy" />
			<input>
				<port id="0" precision="FP32">
					<dim>-1</dim>
					<dim>32</dim>
					<dim>92</dim>
					<dim>124</dim>
				</port>
				<port id="1" precision="FP32">
					<dim>1</dim>
					<dim>32</dim>
					<dim>1</dim>
					<dim>1</dim>
				</port>
			</input>
			<output>
				<port id="2" precision="FP32" names="/backbone/stage3/unit1/conv3/conv/Conv_output_0">
					<dim>-1</dim>
					<dim>32</dim>
					<dim>92</dim>
					<dim>124</dim>
				</port>
			</output>
		</layer>
		<layer id="98" name="onnx::Conv_2329_compressed" type="Const" version="opset1">
			<data element_type="f16" shape="192, 32, 1, 1" offset="51868" size="12288" />
			<output>
				<port id="0" precision="FP16">
					<dim>192</dim>
					<dim>32</dim>
					<dim>1</dim>
					<dim>1</dim>
				</port>
			</output>
		</layer>
		<layer id="99" name="onnx::Conv_2329" type="Convert" version="opset1">
			<data destination_type="f32" />
			<rt_info>
				<attribute name="decompression" version="0" />
			</rt_info>
			<input>
				<port id="0" precision="FP16">
					<dim>192</dim>
					<dim>32</dim>
					<dim>1</dim>
					<dim>1</dim>
				</port>
			</input>
			<output>
				<port id="1" precision="FP32" names="onnx::Conv_2329">
					<dim>192</dim>
					<dim>32</dim>
					<dim>1</dim>
					<dim>1</dim>
				</port>
			</output>
		</layer>
		<layer id="100" name="/backbone/stage3/unit2/conv1/conv/Conv/WithoutBiases" type="Convolution" version="opset1">
			<data strides="1, 1" dilations="1, 1" pads_begin="0, 0" pads_end="0, 0" auto_pad="explicit" />
			<input>
				<port id="0" precision="FP32">
					<dim>-1</dim>
					<dim>32</dim>
					<dim>92</dim>
					<dim>124</dim>
				</port>
				<port id="1" precision="FP32">
					<dim>192</dim>
					<dim>32</dim>
					<dim>1</dim>
					<dim>1</dim>
				</port>
			</input>
			<output>
				<port id="2" precision="FP32">
					<dim>-1</dim>
					<dim>192</dim>
					<dim>92</dim>
					<dim>124</dim>
				</port>
			</output>
		</layer>
		<layer id="101" name="Reshape_611_compressed" type="Const" version="opset1">
			<data element_type="f16" shape="1, 192, 1, 1" offset="64156" size="384" />
			<output>
				<port id="0" precision="FP16">
					<dim>1</dim>
					<dim>192</dim>
					<dim>1</dim>
					<dim>1</dim>
				</port>
			</output>
		</layer>
		<layer id="102" name="Reshape_611" type="Convert" version="opset1">
			<data destination_type="f32" />
			<rt_info>
				<attribute name="decompression" version="0" />
			</rt_info>
			<input>
				<port id="0" precision="FP16">
					<dim>1</dim>
					<dim>192</dim>
					<dim>1</dim>
					<dim>1</dim>
				</port>
			</input>
			<output>
				<port id="1" precision="FP32">
					<dim>1</dim>
					<dim>192</dim>
					<dim>1</dim>
					<dim>1</dim>
				</port>
			</output>
		</layer>
		<layer id="103" name="/backbone/stage3/unit2/conv1/conv/Conv" type="Add" version="opset1">
			<data auto_broadcast="numpy" />
			<input>
				<port id="0" precision="FP32">
					<dim>-1</dim>
					<dim>192</dim>
					<dim>92</dim>
					<dim>124</dim>
				</port>
				<port id="1" precision="FP32">
					<dim>1</dim>
					<dim>192</dim>
					<dim>1</dim>
					<dim>1</dim>
				</port>
			</input>
			<output>
				<port id="2" precision="FP32" names="/backbone/stage3/unit2/conv1/conv/Conv_output_0">
					<dim>-1</dim>
					<dim>192</dim>
					<dim>92</dim>
					<dim>124</dim>
				</port>
			</output>
		</layer>
		<layer id="104" name="/backbone/stage3/unit2/conv1/activ/Clip" type="Clamp" version="opset1">
			<data min="0" max="6" />
			<input>
				<port id="0" precision="FP32">
					<dim>-1</dim>
					<dim>192</dim>
					<dim>92</dim>
					<dim>124</dim>
				</port>
			</input>
			<output>
				<port id="1" precision="FP32" names="/backbone/stage3/unit2/conv1/activ/Clip_output_0">
					<dim>-1</dim>
					<dim>192</dim>
					<dim>92</dim>
					<dim>124</dim>
				</port>
			</output>
		</layer>
		<layer id="105" name="Reshape_626_compressed" type="Const" version="opset1">
			<data element_type="f16" shape="192, 1, 1, 3, 3" offset="64540" size="3456" />
			<output>
				<port id="0" precision="FP16">
					<dim>192</dim>
					<dim>1</dim>
					<dim>1</dim>
					<dim>3</dim>
					<dim>3</dim>
				</port>
			</output>
		</layer>
		<layer id="106" name="Reshape_626" type="Convert" version="opset1">
			<data destination_type="f32" />
			<rt_info>
				<attribute name="decompression" version="0" />
			</rt_info>
			<input>
				<port id="0" precision="FP16">
					<dim>192</dim>
					<dim>1</dim>
					<dim>1</dim>
					<dim>3</dim>
					<dim>3</dim>
				</port>
			</input>
			<output>
				<port id="1" precision="FP32">
					<dim>192</dim>
					<dim>1</dim>
					<dim>1</dim>
					<dim>3</dim>
					<dim>3</dim>
				</port>
			</output>
		</layer>
		<layer id="107" name="/backbone/stage3/unit2/conv2/conv/Conv/WithoutBiases" type="GroupConvolution" version="opset1">
			<data strides="1, 1" pads_begin="1, 1" pads_end="1, 1" dilations="1, 1" auto_pad="explicit" />
			<input>
				<port id="0" precision="FP32">
					<dim>-1</dim>
					<dim>192</dim>
					<dim>92</dim>
					<dim>124</dim>
				</port>
				<port id="1" precision="FP32">
					<dim>192</dim>
					<dim>1</dim>
					<dim>1</dim>
					<dim>3</dim>
					<dim>3</dim>
				</port>
			</input>
			<output>
				<port id="2" precision="FP32">
					<dim>-1</dim>
					<dim>192</dim>
					<dim>92</dim>
					<dim>124</dim>
				</port>
			</output>
		</layer>
		<layer id="108" name="Reshape_678_compressed" type="Const" version="opset1">
			<data element_type="f16" shape="1, 192, 1, 1" offset="67996" size="384" />
			<output>
				<port id="0" precision="FP16">
					<dim>1</dim>
					<dim>192</dim>
					<dim>1</dim>
					<dim>1</dim>
				</port>
			</output>
		</layer>
		<layer id="109" name="Reshape_678" type="Convert" version="opset1">
			<data destination_type="f32" />
			<rt_info>
				<attribute name="decompression" version="0" />
			</rt_info>
			<input>
				<port id="0" precision="FP16">
					<dim>1</dim>
					<dim>192</dim>
					<dim>1</dim>
					<dim>1</dim>
				</port>
			</input>
			<output>
				<port id="1" precision="FP32">
					<dim>1</dim>
					<dim>192</dim>
					<dim>1</dim>
					<dim>1</dim>
				</port>
			</output>
		</layer>
		<layer id="110" name="/backbone/stage3/unit2/conv2/conv/Conv" type="Add" version="opset1">
			<data auto_broadcast="numpy" />
			<input>
				<port id="0" precision="FP32">
					<dim>-1</dim>
					<dim>192</dim>
					<dim>92</dim>
					<dim>124</dim>
				</port>
				<port id="1" precision="FP32">
					<dim>1</dim>
					<dim>192</dim>
					<dim>1</dim>
					<dim>1</dim>
				</port>
			</input>
			<output>
				<port id="2" precision="FP32" names="/backbone/stage3/unit2/conv2/conv/Conv_output_0">
					<dim>-1</dim>
					<dim>192</dim>
					<dim>92</dim>
					<dim>124</dim>
				</port>
			</output>
		</layer>
		<layer id="111" name="/backbone/stage3/unit2/conv2/activ/Clip" type="Clamp" version="opset1">
			<data min="0" max="6" />
			<input>
				<port id="0" precision="FP32">
					<dim>-1</dim>
					<dim>192</dim>
					<dim>92</dim>
					<dim>124</dim>
				</port>
			</input>
			<output>
				<port id="1" precision="FP32" names="/backbone/stage3/unit2/conv2/activ/Clip_output_0">
					<dim>-1</dim>
					<dim>192</dim>
					<dim>92</dim>
					<dim>124</dim>
				</port>
			</output>
		</layer>
		<layer id="112" name="onnx::Conv_2335_compressed" type="Const" version="opset1">
			<data element_type="f16" shape="32, 192, 1, 1" offset="68380" size="12288" />
			<output>
				<port id="0" precision="FP16">
					<dim>32</dim>
					<dim>192</dim>
					<dim>1</dim>
					<dim>1</dim>
				</port>
			</output>
		</layer>
		<layer id="113" name="onnx::Conv_2335" type="Convert" version="opset1">
			<data destination_type="f32" />
			<rt_info>
				<attribute name="decompression" version="0" />
			</rt_info>
			<input>
				<port id="0" precision="FP16">
					<dim>32</dim>
					<dim>192</dim>
					<dim>1</dim>
					<dim>1</dim>
				</port>
			</input>
			<output>
				<port id="1" precision="FP32" names="onnx::Conv_2335">
					<dim>32</dim>
					<dim>192</dim>
					<dim>1</dim>
					<dim>1</dim>
				</port>
			</output>
		</layer>
		<layer id="114" name="/backbone/stage3/unit2/conv3/conv/Conv/WithoutBiases" type="Convolution" version="opset1">
			<data strides="1, 1" dilations="1, 1" pads_begin="0, 0" pads_end="0, 0" auto_pad="explicit" />
			<input>
				<port id="0" precision="FP32">
					<dim>-1</dim>
					<dim>192</dim>
					<dim>92</dim>
					<dim>124</dim>
				</port>
				<port id="1" precision="FP32">
					<dim>32</dim>
					<dim>192</dim>
					<dim>1</dim>
					<dim>1</dim>
				</port>
			</input>
			<output>
				<port id="2" precision="FP32">
					<dim>-1</dim>
					<dim>32</dim>
					<dim>92</dim>
					<dim>124</dim>
				</port>
			</output>
		</layer>
		<layer id="115" name="Reshape_698_compressed" type="Const" version="opset1">
			<data element_type="f16" shape="1, 32, 1, 1" offset="80668" size="64" />
			<output>
				<port id="0" precision="FP16">
					<dim>1</dim>
					<dim>32</dim>
					<dim>1</dim>
					<dim>1</dim>
				</port>
			</output>
		</layer>
		<layer id="116" name="Reshape_698" type="Convert" version="opset1">
			<data destination_type="f32" />
			<rt_info>
				<attribute name="decompression" version="0" />
			</rt_info>
			<input>
				<port id="0" precision="FP16">
					<dim>1</dim>
					<dim>32</dim>
					<dim>1</dim>
					<dim>1</dim>
				</port>
			</input>
			<output>
				<port id="1" precision="FP32">
					<dim>1</dim>
					<dim>32</dim>
					<dim>1</dim>
					<dim>1</dim>
				</port>
			</output>
		</layer>
		<layer id="117" name="/backbone/stage3/unit2/conv3/conv/Conv" type="Add" version="opset1">
			<data auto_broadcast="numpy" />
			<input>
				<port id="0" precision="FP32">
					<dim>-1</dim>
					<dim>32</dim>
					<dim>92</dim>
					<dim>124</dim>
				</port>
				<port id="1" precision="FP32">
					<dim>1</dim>
					<dim>32</dim>
					<dim>1</dim>
					<dim>1</dim>
				</port>
			</input>
			<output>
				<port id="2" precision="FP32" names="/backbone/stage3/unit2/conv3/conv/Conv_output_0">
					<dim>-1</dim>
					<dim>32</dim>
					<dim>92</dim>
					<dim>124</dim>
				</port>
			</output>
		</layer>
		<layer id="118" name="/backbone/stage3/unit2/Add" type="Add" version="opset1">
			<data auto_broadcast="numpy" />
			<input>
				<port id="0" precision="FP32">
					<dim>-1</dim>
					<dim>32</dim>
					<dim>92</dim>
					<dim>124</dim>
				</port>
				<port id="1" precision="FP32">
					<dim>-1</dim>
					<dim>32</dim>
					<dim>92</dim>
					<dim>124</dim>
				</port>
			</input>
			<output>
				<port id="2" precision="FP32" names="/backbone/stage3/unit2/Add_output_0">
					<dim>-1</dim>
					<dim>32</dim>
					<dim>92</dim>
					<dim>124</dim>
				</port>
			</output>
		</layer>
		<layer id="119" name="onnx::Conv_2338_compressed" type="Const" version="opset1">
			<data element_type="f16" shape="192, 32, 1, 1" offset="80732" size="12288" />
			<output>
				<port id="0" precision="FP16">
					<dim>192</dim>
					<dim>32</dim>
					<dim>1</dim>
					<dim>1</dim>
				</port>
			</output>
		</layer>
		<layer id="120" name="onnx::Conv_2338" type="Convert" version="opset1">
			<data destination_type="f32" />
			<rt_info>
				<attribute name="decompression" version="0" />
			</rt_info>
			<input>
				<port id="0" precision="FP16">
					<dim>192</dim>
					<dim>32</dim>
					<dim>1</dim>
					<dim>1</dim>
				</port>
			</input>
			<output>
				<port id="1" precision="FP32" names="onnx::Conv_2338">
					<dim>192</dim>
					<dim>32</dim>
					<dim>1</dim>
					<dim>1</dim>
				</port>
			</output>
		</layer>
		<layer id="121" name="/backbone/stage3/unit3/conv1/conv/Conv/WithoutBiases" type="Convolution" version="opset1">
			<data strides="1, 1" dilations="1, 1" pads_begin="0, 0" pads_end="0, 0" auto_pad="explicit" />
			<input>
				<port id="0" precision="FP32">
					<dim>-1</dim>
					<dim>32</dim>
					<dim>92</dim>
					<dim>124</dim>
				</port>
				<port id="1" precision="FP32">
					<dim>192</dim>
					<dim>32</dim>
					<dim>1</dim>
					<dim>1</dim>
				</port>
			</input>
			<output>
				<port id="2" precision="FP32">
					<dim>-1</dim>
					<dim>192</dim>
					<dim>92</dim>
					<dim>124</dim>
				</port>
			</output>
		</layer>
		<layer id="122" name="Reshape_715_compressed" type="Const" version="opset1">
			<data element_type="f16" shape="1, 192, 1, 1" offset="93020" size="384" />
			<output>
				<port id="0" precision="FP16">
					<dim>1</dim>
					<dim>192</dim>
					<dim>1</dim>
					<dim>1</dim>
				</port>
			</output>
		</layer>
		<layer id="123" name="Reshape_715" type="Convert" version="opset1">
			<data destination_type="f32" />
			<rt_info>
				<attribute name="decompression" version="0" />
			</rt_info>
			<input>
				<port id="0" precision="FP16">
					<dim>1</dim>
					<dim>192</dim>
					<dim>1</dim>
					<dim>1</dim>
				</port>
			</input>
			<output>
				<port id="1" precision="FP32">
					<dim>1</dim>
					<dim>192</dim>
					<dim>1</dim>
					<dim>1</dim>
				</port>
			</output>
		</layer>
		<layer id="124" name="/backbone/stage3/unit3/conv1/conv/Conv" type="Add" version="opset1">
			<data auto_broadcast="numpy" />
			<input>
				<port id="0" precision="FP32">
					<dim>-1</dim>
					<dim>192</dim>
					<dim>92</dim>
					<dim>124</dim>
				</port>
				<port id="1" precision="FP32">
					<dim>1</dim>
					<dim>192</dim>
					<dim>1</dim>
					<dim>1</dim>
				</port>
			</input>
			<output>
				<port id="2" precision="FP32" names="/backbone/stage3/unit3/conv1/conv/Conv_output_0">
					<dim>-1</dim>
					<dim>192</dim>
					<dim>92</dim>
					<dim>124</dim>
				</port>
			</output>
		</layer>
		<layer id="125" name="/backbone/stage3/unit3/conv1/activ/Clip" type="Clamp" version="opset1">
			<data min="0" max="6" />
			<input>
				<port id="0" precision="FP32">
					<dim>-1</dim>
					<dim>192</dim>
					<dim>92</dim>
					<dim>124</dim>
				</port>
			</input>
			<output>
				<port id="1" precision="FP32" names="/backbone/stage3/unit3/conv1/activ/Clip_output_0">
					<dim>-1</dim>
					<dim>192</dim>
					<dim>92</dim>
					<dim>124</dim>
				</port>
			</output>
		</layer>
		<layer id="126" name="Reshape_730_compressed" type="Const" version="opset1">
			<data element_type="f16" shape="192, 1, 1, 3, 3" offset="93404" size="3456" />
			<output>
				<port id="0" precision="FP16">
					<dim>192</dim>
					<dim>1</dim>
					<dim>1</dim>
					<dim>3</dim>
					<dim>3</dim>
				</port>
			</output>
		</layer>
		<layer id="127" name="Reshape_730" type="Convert" version="opset1">
			<data destination_type="f32" />
			<rt_info>
				<attribute name="decompression" version="0" />
			</rt_info>
			<input>
				<port id="0" precision="FP16">
					<dim>192</dim>
					<dim>1</dim>
					<dim>1</dim>
					<dim>3</dim>
					<dim>3</dim>
				</port>
			</input>
			<output>
				<port id="1" precision="FP32">
					<dim>192</dim>
					<dim>1</dim>
					<dim>1</dim>
					<dim>3</dim>
					<dim>3</dim>
				</port>
			</output>
		</layer>
		<layer id="128" name="/backbone/stage3/unit3/conv2/conv/Conv/WithoutBiases" type="GroupConvolution" version="opset1">
			<data strides="1, 1" pads_begin="1, 1" pads_end="1, 1" dilations="1, 1" auto_pad="explicit" />
			<input>
				<port id="0" precision="FP32">
					<dim>-1</dim>
					<dim>192</dim>
					<dim>92</dim>
					<dim>124</dim>
				</port>
				<port id="1" precision="FP32">
					<dim>192</dim>
					<dim>1</dim>
					<dim>1</dim>
					<dim>3</dim>
					<dim>3</dim>
				</port>
			</input>
			<output>
				<port id="2" precision="FP32">
					<dim>-1</dim>
					<dim>192</dim>
					<dim>92</dim>
					<dim>124</dim>
				</port>
			</output>
		</layer>
		<layer id="129" name="Reshape_782_compressed" type="Const" version="opset1">
			<data element_type="f16" shape="1, 192, 1, 1" offset="96860" size="384" />
			<output>
				<port id="0" precision="FP16">
					<dim>1</dim>
					<dim>192</dim>
					<dim>1</dim>
					<dim>1</dim>
				</port>
			</output>
		</layer>
		<layer id="130" name="Reshape_782" type="Convert" version="opset1">
			<data destination_type="f32" />
			<rt_info>
				<attribute name="decompression" version="0" />
			</rt_info>
			<input>
				<port id="0" precision="FP16">
					<dim>1</dim>
					<dim>192</dim>
					<dim>1</dim>
					<dim>1</dim>
				</port>
			</input>
			<output>
				<port id="1" precision="FP32">
					<dim>1</dim>
					<dim>192</dim>
					<dim>1</dim>
					<dim>1</dim>
				</port>
			</output>
		</layer>
		<layer id="131" name="/backbone/stage3/unit3/conv2/conv/Conv" type="Add" version="opset1">
			<data auto_broadcast="numpy" />
			<input>
				<port id="0" precision="FP32">
					<dim>-1</dim>
					<dim>192</dim>
					<dim>92</dim>
					<dim>124</dim>
				</port>
				<port id="1" precision="FP32">
					<dim>1</dim>
					<dim>192</dim>
					<dim>1</dim>
					<dim>1</dim>
				</port>
			</input>
			<output>
				<port id="2" precision="FP32" names="/backbone/stage3/unit3/conv2/conv/Conv_output_0">
					<dim>-1</dim>
					<dim>192</dim>
					<dim>92</dim>
					<dim>124</dim>
				</port>
			</output>
		</layer>
		<layer id="132" name="/backbone/stage3/unit3/conv2/activ/Clip" type="Clamp" version="opset1">
			<data min="0" max="6" />
			<input>
				<port id="0" precision="FP32">
					<dim>-1</dim>
					<dim>192</dim>
					<dim>92</dim>
					<dim>124</dim>
				</port>
			</input>
			<output>
				<port id="1" precision="FP32" names="/backbone/stage3/unit3/conv2/activ/Clip_output_0">
					<dim>-1</dim>
					<dim>192</dim>
					<dim>92</dim>
					<dim>124</dim>
				</port>
			</output>
		</layer>
		<layer id="133" name="onnx::Conv_2344_compressed" type="Const" version="opset1">
			<data element_type="f16" shape="32, 192, 1, 1" offset="97244" size="12288" />
			<output>
				<port id="0" precision="FP16">
					<dim>32</dim>
					<dim>192</dim>
					<dim>1</dim>
					<dim>1</dim>
				</port>
			</output>
		</layer>
		<layer id="134" name="onnx::Conv_2344" type="Convert" version="opset1">
			<data destination_type="f32" />
			<rt_info>
				<attribute name="decompression" version="0" />
			</rt_info>
			<input>
				<port id="0" precision="FP16">
					<dim>32</dim>
					<dim>192</dim>
					<dim>1</dim>
					<dim>1</dim>
				</port>
			</input>
			<output>
				<port id="1" precision="FP32" names="onnx::Conv_2344">
					<dim>32</dim>
					<dim>192</dim>
					<dim>1</dim>
					<dim>1</dim>
				</port>
			</output>
		</layer>
		<layer id="135" name="/backbone/stage3/unit3/conv3/conv/Conv/WithoutBiases" type="Convolution" version="opset1">
			<data strides="1, 1" dilations="1, 1" pads_begin="0, 0" pads_end="0, 0" auto_pad="explicit" />
			<input>
				<port id="0" precision="FP32">
					<dim>-1</dim>
					<dim>192</dim>
					<dim>92</dim>
					<dim>124</dim>
				</port>
				<port id="1" precision="FP32">
					<dim>32</dim>
					<dim>192</dim>
					<dim>1</dim>
					<dim>1</dim>
				</port>
			</input>
			<output>
				<port id="2" precision="FP32">
					<dim>-1</dim>
					<dim>32</dim>
					<dim>92</dim>
					<dim>124</dim>
				</port>
			</output>
		</layer>
		<layer id="136" name="Reshape_802_compressed" type="Const" version="opset1">
			<data element_type="f16" shape="1, 32, 1, 1" offset="109532" size="64" />
			<output>
				<port id="0" precision="FP16">
					<dim>1</dim>
					<dim>32</dim>
					<dim>1</dim>
					<dim>1</dim>
				</port>
			</output>
		</layer>
		<layer id="137" name="Reshape_802" type="Convert" version="opset1">
			<data destination_type="f32" />
			<rt_info>
				<attribute name="decompression" version="0" />
			</rt_info>
			<input>
				<port id="0" precision="FP16">
					<dim>1</dim>
					<dim>32</dim>
					<dim>1</dim>
					<dim>1</dim>
				</port>
			</input>
			<output>
				<port id="1" precision="FP32">
					<dim>1</dim>
					<dim>32</dim>
					<dim>1</dim>
					<dim>1</dim>
				</port>
			</output>
		</layer>
		<layer id="138" name="/backbone/stage3/unit3/conv3/conv/Conv" type="Add" version="opset1">
			<data auto_broadcast="numpy" />
			<input>
				<port id="0" precision="FP32">
					<dim>-1</dim>
					<dim>32</dim>
					<dim>92</dim>
					<dim>124</dim>
				</port>
				<port id="1" precision="FP32">
					<dim>1</dim>
					<dim>32</dim>
					<dim>1</dim>
					<dim>1</dim>
				</port>
			</input>
			<output>
				<port id="2" precision="FP32" names="/backbone/stage3/unit3/conv3/conv/Conv_output_0">
					<dim>-1</dim>
					<dim>32</dim>
					<dim>92</dim>
					<dim>124</dim>
				</port>
			</output>
		</layer>
		<layer id="139" name="/backbone/stage3/unit3/Add" type="Add" version="opset1">
			<data auto_broadcast="numpy" />
			<input>
				<port id="0" precision="FP32">
					<dim>-1</dim>
					<dim>32</dim>
					<dim>92</dim>
					<dim>124</dim>
				</port>
				<port id="1" precision="FP32">
					<dim>-1</dim>
					<dim>32</dim>
					<dim>92</dim>
					<dim>124</dim>
				</port>
			</input>
			<output>
				<port id="2" precision="FP32" names="/backbone/stage3/unit3/Add_output_0">
					<dim>-1</dim>
					<dim>32</dim>
					<dim>92</dim>
					<dim>124</dim>
				</port>
			</output>
		</layer>
		<layer id="140" name="neck.lateral_convs.0.conv.weight_compressed" type="Const" version="opset1">
			<data element_type="f16" shape="64, 32, 1, 1" offset="109596" size="4096" />
			<output>
				<port id="0" precision="FP16">
					<dim>64</dim>
					<dim>32</dim>
					<dim>1</dim>
					<dim>1</dim>
				</port>
			</output>
		</layer>
		<layer id="141" name="neck.lateral_convs.0.conv.weight" type="Convert" version="opset1">
			<data destination_type="f32" />
			<rt_info>
				<attribute name="decompression" version="0" />
			</rt_info>
			<input>
				<port id="0" precision="FP16">
					<dim>64</dim>
					<dim>32</dim>
					<dim>1</dim>
					<dim>1</dim>
				</port>
			</input>
			<output>
				<port id="1" precision="FP32" names="neck.lateral_convs.0.conv.weight">
					<dim>64</dim>
					<dim>32</dim>
					<dim>1</dim>
					<dim>1</dim>
				</port>
			</output>
		</layer>
		<layer id="142" name="/neck/lateral_convs.0/conv/Conv/WithoutBiases" type="Convolution" version="opset1">
			<data strides="1, 1" dilations="1, 1" pads_begin="0, 0" pads_end="0, 0" auto_pad="explicit" />
			<input>
				<port id="0" precision="FP32">
					<dim>-1</dim>
					<dim>32</dim>
					<dim>92</dim>
					<dim>124</dim>
				</port>
				<port id="1" precision="FP32">
					<dim>64</dim>
					<dim>32</dim>
					<dim>1</dim>
					<dim>1</dim>
				</port>
			</input>
			<output>
				<port id="2" precision="FP32">
					<dim>-1</dim>
					<dim>64</dim>
					<dim>92</dim>
					<dim>124</dim>
				</port>
			</output>
		</layer>
		<layer id="143" name="Reshape_1959_compressed" type="Const" version="opset1">
			<data element_type="f16" shape="1, 64, 1, 1" offset="113692" size="128" />
			<output>
				<port id="0" precision="FP16">
					<dim>1</dim>
					<dim>64</dim>
					<dim>1</dim>
					<dim>1</dim>
				</port>
			</output>
		</layer>
		<layer id="144" name="Reshape_1959" type="Convert" version="opset1">
			<data destination_type="f32" />
			<rt_info>
				<attribute name="decompression" version="0" />
			</rt_info>
			<input>
				<port id="0" precision="FP16">
					<dim>1</dim>
					<dim>64</dim>
					<dim>1</dim>
					<dim>1</dim>
				</port>
			</input>
			<output>
				<port id="1" precision="FP32">
					<dim>1</dim>
					<dim>64</dim>
					<dim>1</dim>
					<dim>1</dim>
				</port>
			</output>
		</layer>
		<layer id="145" name="/neck/lateral_convs.0/conv/Conv" type="Add" version="opset1">
			<data auto_broadcast="numpy" />
			<input>
				<port id="0" precision="FP32">
					<dim>-1</dim>
					<dim>64</dim>
					<dim>92</dim>
					<dim>124</dim>
				</port>
				<port id="1" precision="FP32">
					<dim>1</dim>
					<dim>64</dim>
					<dim>1</dim>
					<dim>1</dim>
				</port>
			</input>
			<output>
				<port id="2" precision="FP32" names="/neck/lateral_convs.0/conv/Conv_output_0">
					<dim>-1</dim>
					<dim>64</dim>
					<dim>92</dim>
					<dim>124</dim>
				</port>
			</output>
		</layer>
		<layer id="146" name="onnx::Conv_2347_compressed" type="Const" version="opset1">
			<data element_type="f16" shape="192, 32, 1, 1" offset="113820" size="12288" />
			<output>
				<port id="0" precision="FP16">
					<dim>192</dim>
					<dim>32</dim>
					<dim>1</dim>
					<dim>1</dim>
				</port>
			</output>
		</layer>
		<layer id="147" name="onnx::Conv_2347" type="Convert" version="opset1">
			<data destination_type="f32" />
			<rt_info>
				<attribute name="decompression" version="0" />
			</rt_info>
			<input>
				<port id="0" precision="FP16">
					<dim>192</dim>
					<dim>32</dim>
					<dim>1</dim>
					<dim>1</dim>
				</port>
			</input>
			<output>
				<port id="1" precision="FP32" names="onnx::Conv_2347">
					<dim>192</dim>
					<dim>32</dim>
					<dim>1</dim>
					<dim>1</dim>
				</port>
			</output>
		</layer>
		<layer id="148" name="/backbone/stage4/unit1/conv1/conv/Conv/WithoutBiases" type="Convolution" version="opset1">
			<data strides="1, 1" dilations="1, 1" pads_begin="0, 0" pads_end="0, 0" auto_pad="explicit" />
			<input>
				<port id="0" precision="FP32">
					<dim>-1</dim>
					<dim>32</dim>
					<dim>92</dim>
					<dim>124</dim>
				</port>
				<port id="1" precision="FP32">
					<dim>192</dim>
					<dim>32</dim>
					<dim>1</dim>
					<dim>1</dim>
				</port>
			</input>
			<output>
				<port id="2" precision="FP32">
					<dim>-1</dim>
					<dim>192</dim>
					<dim>92</dim>
					<dim>124</dim>
				</port>
			</output>
		</layer>
		<layer id="149" name="Reshape_819_compressed" type="Const" version="opset1">
			<data element_type="f16" shape="1, 192, 1, 1" offset="126108" size="384" />
			<output>
				<port id="0" precision="FP16">
					<dim>1</dim>
					<dim>192</dim>
					<dim>1</dim>
					<dim>1</dim>
				</port>
			</output>
		</layer>
		<layer id="150" name="Reshape_819" type="Convert" version="opset1">
			<data destination_type="f32" />
			<rt_info>
				<attribute name="decompression" version="0" />
			</rt_info>
			<input>
				<port id="0" precision="FP16">
					<dim>1</dim>
					<dim>192</dim>
					<dim>1</dim>
					<dim>1</dim>
				</port>
			</input>
			<output>
				<port id="1" precision="FP32">
					<dim>1</dim>
					<dim>192</dim>
					<dim>1</dim>
					<dim>1</dim>
				</port>
			</output>
		</layer>
		<layer id="151" name="/backbone/stage4/unit1/conv1/conv/Conv" type="Add" version="opset1">
			<data auto_broadcast="numpy" />
			<input>
				<port id="0" precision="FP32">
					<dim>-1</dim>
					<dim>192</dim>
					<dim>92</dim>
					<dim>124</dim>
				</port>
				<port id="1" precision="FP32">
					<dim>1</dim>
					<dim>192</dim>
					<dim>1</dim>
					<dim>1</dim>
				</port>
			</input>
			<output>
				<port id="2" precision="FP32" names="/backbone/stage4/unit1/conv1/conv/Conv_output_0">
					<dim>-1</dim>
					<dim>192</dim>
					<dim>92</dim>
					<dim>124</dim>
				</port>
			</output>
		</layer>
		<layer id="152" name="/backbone/stage4/unit1/conv1/activ/Clip" type="Clamp" version="opset1">
			<data min="0" max="6" />
			<input>
				<port id="0" precision="FP32">
					<dim>-1</dim>
					<dim>192</dim>
					<dim>92</dim>
					<dim>124</dim>
				</port>
			</input>
			<output>
				<port id="1" precision="FP32" names="/backbone/stage4/unit1/conv1/activ/Clip_output_0">
					<dim>-1</dim>
					<dim>192</dim>
					<dim>92</dim>
					<dim>124</dim>
				</port>
			</output>
		</layer>
		<layer id="153" name="Reshape_834_compressed" type="Const" version="opset1">
			<data element_type="f16" shape="192, 1, 1, 3, 3" offset="126492" size="3456" />
			<output>
				<port id="0" precision="FP16">
					<dim>192</dim>
					<dim>1</dim>
					<dim>1</dim>
					<dim>3</dim>
					<dim>3</dim>
				</port>
			</output>
		</layer>
		<layer id="154" name="Reshape_834" type="Convert" version="opset1">
			<data destination_type="f32" />
			<rt_info>
				<attribute name="decompression" version="0" />
			</rt_info>
			<input>
				<port id="0" precision="FP16">
					<dim>192</dim>
					<dim>1</dim>
					<dim>1</dim>
					<dim>3</dim>
					<dim>3</dim>
				</port>
			</input>
			<output>
				<port id="1" precision="FP32">
					<dim>192</dim>
					<dim>1</dim>
					<dim>1</dim>
					<dim>3</dim>
					<dim>3</dim>
				</port>
			</output>
		</layer>
		<layer id="155" name="/backbone/stage4/unit1/conv2/conv/Conv/WithoutBiases" type="GroupConvolution" version="opset1">
			<data strides="2, 2" pads_begin="1, 1" pads_end="1, 1" dilations="1, 1" auto_pad="explicit" />
			<input>
				<port id="0" precision="FP32">
					<dim>-1</dim>
					<dim>192</dim>
					<dim>92</dim>
					<dim>124</dim>
				</port>
				<port id="1" precision="FP32">
					<dim>192</dim>
					<dim>1</dim>
					<dim>1</dim>
					<dim>3</dim>
					<dim>3</dim>
				</port>
			</input>
			<output>
				<port id="2" precision="FP32">
					<dim>-1</dim>
					<dim>192</dim>
					<dim>46</dim>
					<dim>62</dim>
				</port>
			</output>
		</layer>
		<layer id="156" name="Reshape_886_compressed" type="Const" version="opset1">
			<data element_type="f16" shape="1, 192, 1, 1" offset="129948" size="384" />
			<output>
				<port id="0" precision="FP16">
					<dim>1</dim>
					<dim>192</dim>
					<dim>1</dim>
					<dim>1</dim>
				</port>
			</output>
		</layer>
		<layer id="157" name="Reshape_886" type="Convert" version="opset1">
			<data destination_type="f32" />
			<rt_info>
				<attribute name="decompression" version="0" />
			</rt_info>
			<input>
				<port id="0" precision="FP16">
					<dim>1</dim>
					<dim>192</dim>
					<dim>1</dim>
					<dim>1</dim>
				</port>
			</input>
			<output>
				<port id="1" precision="FP32">
					<dim>1</dim>
					<dim>192</dim>
					<dim>1</dim>
					<dim>1</dim>
				</port>
			</output>
		</layer>
		<layer id="158" name="/backbone/stage4/unit1/conv2/conv/Conv" type="Add" version="opset1">
			<data auto_broadcast="numpy" />
			<input>
				<port id="0" precision="FP32">
					<dim>-1</dim>
					<dim>192</dim>
					<dim>46</dim>
					<dim>62</dim>
				</port>
				<port id="1" precision="FP32">
					<dim>1</dim>
					<dim>192</dim>
					<dim>1</dim>
					<dim>1</dim>
				</port>
			</input>
			<output>
				<port id="2" precision="FP32" names="/backbone/stage4/unit1/conv2/conv/Conv_output_0">
					<dim>-1</dim>
					<dim>192</dim>
					<dim>46</dim>
					<dim>62</dim>
				</port>
			</output>
		</layer>
		<layer id="159" name="/backbone/stage4/unit1/conv2/activ/Clip" type="Clamp" version="opset1">
			<data min="0" max="6" />
			<input>
				<port id="0" precision="FP32">
					<dim>-1</dim>
					<dim>192</dim>
					<dim>46</dim>
					<dim>62</dim>
				</port>
			</input>
			<output>
				<port id="1" precision="FP32" names="/backbone/stage4/unit1/conv2/activ/Clip_output_0">
					<dim>-1</dim>
					<dim>192</dim>
					<dim>46</dim>
					<dim>62</dim>
				</port>
			</output>
		</layer>
		<layer id="160" name="onnx::Conv_2353_compressed" type="Const" version="opset1">
			<data element_type="f16" shape="64, 192, 1, 1" offset="130332" size="24576" />
			<output>
				<port id="0" precision="FP16">
					<dim>64</dim>
					<dim>192</dim>
					<dim>1</dim>
					<dim>1</dim>
				</port>
			</output>
		</layer>
		<layer id="161" name="onnx::Conv_2353" type="Convert" version="opset1">
			<data destination_type="f32" />
			<rt_info>
				<attribute name="decompression" version="0" />
			</rt_info>
			<input>
				<port id="0" precision="FP16">
					<dim>64</dim>
					<dim>192</dim>
					<dim>1</dim>
					<dim>1</dim>
				</port>
			</input>
			<output>
				<port id="1" precision="FP32" names="onnx::Conv_2353">
					<dim>64</dim>
					<dim>192</dim>
					<dim>1</dim>
					<dim>1</dim>
				</port>
			</output>
		</layer>
		<layer id="162" name="/backbone/stage4/unit1/conv3/conv/Conv/WithoutBiases" type="Convolution" version="opset1">
			<data strides="1, 1" dilations="1, 1" pads_begin="0, 0" pads_end="0, 0" auto_pad="explicit" />
			<input>
				<port id="0" precision="FP32">
					<dim>-1</dim>
					<dim>192</dim>
					<dim>46</dim>
					<dim>62</dim>
				</port>
				<port id="1" precision="FP32">
					<dim>64</dim>
					<dim>192</dim>
					<dim>1</dim>
					<dim>1</dim>
				</port>
			</input>
			<output>
				<port id="2" precision="FP32">
					<dim>-1</dim>
					<dim>64</dim>
					<dim>46</dim>
					<dim>62</dim>
				</port>
			</output>
		</layer>
		<layer id="163" name="Reshape_906_compressed" type="Const" version="opset1">
			<data element_type="f16" shape="1, 64, 1, 1" offset="154908" size="128" />
			<output>
				<port id="0" precision="FP16">
					<dim>1</dim>
					<dim>64</dim>
					<dim>1</dim>
					<dim>1</dim>
				</port>
			</output>
		</layer>
		<layer id="164" name="Reshape_906" type="Convert" version="opset1">
			<data destination_type="f32" />
			<rt_info>
				<attribute name="decompression" version="0" />
			</rt_info>
			<input>
				<port id="0" precision="FP16">
					<dim>1</dim>
					<dim>64</dim>
					<dim>1</dim>
					<dim>1</dim>
				</port>
			</input>
			<output>
				<port id="1" precision="FP32">
					<dim>1</dim>
					<dim>64</dim>
					<dim>1</dim>
					<dim>1</dim>
				</port>
			</output>
		</layer>
		<layer id="165" name="/backbone/stage4/unit1/conv3/conv/Conv" type="Add" version="opset1">
			<data auto_broadcast="numpy" />
			<input>
				<port id="0" precision="FP32">
					<dim>-1</dim>
					<dim>64</dim>
					<dim>46</dim>
					<dim>62</dim>
				</port>
				<port id="1" precision="FP32">
					<dim>1</dim>
					<dim>64</dim>
					<dim>1</dim>
					<dim>1</dim>
				</port>
			</input>
			<output>
				<port id="2" precision="FP32" names="/backbone/stage4/unit1/conv3/conv/Conv_output_0">
					<dim>-1</dim>
					<dim>64</dim>
					<dim>46</dim>
					<dim>62</dim>
				</port>
			</output>
		</layer>
		<layer id="166" name="onnx::Conv_2356_compressed" type="Const" version="opset1">
			<data element_type="f16" shape="384, 64, 1, 1" offset="155036" size="49152" />
			<output>
				<port id="0" precision="FP16">
					<dim>384</dim>
					<dim>64</dim>
					<dim>1</dim>
					<dim>1</dim>
				</port>
			</output>
		</layer>
		<layer id="167" name="onnx::Conv_2356" type="Convert" version="opset1">
			<data destination_type="f32" />
			<rt_info>
				<attribute name="decompression" version="0" />
			</rt_info>
			<input>
				<port id="0" precision="FP16">
					<dim>384</dim>
					<dim>64</dim>
					<dim>1</dim>
					<dim>1</dim>
				</port>
			</input>
			<output>
				<port id="1" precision="FP32" names="onnx::Conv_2356">
					<dim>384</dim>
					<dim>64</dim>
					<dim>1</dim>
					<dim>1</dim>
				</port>
			</output>
		</layer>
		<layer id="168" name="/backbone/stage4/unit2/conv1/conv/Conv/WithoutBiases" type="Convolution" version="opset1">
			<data strides="1, 1" dilations="1, 1" pads_begin="0, 0" pads_end="0, 0" auto_pad="explicit" />
			<input>
				<port id="0" precision="FP32">
					<dim>-1</dim>
					<dim>64</dim>
					<dim>46</dim>
					<dim>62</dim>
				</port>
				<port id="1" precision="FP32">
					<dim>384</dim>
					<dim>64</dim>
					<dim>1</dim>
					<dim>1</dim>
				</port>
			</input>
			<output>
				<port id="2" precision="FP32">
					<dim>-1</dim>
					<dim>384</dim>
					<dim>46</dim>
					<dim>62</dim>
				</port>
			</output>
		</layer>
		<layer id="169" name="Reshape_922_compressed" type="Const" version="opset1">
			<data element_type="f16" shape="1, 384, 1, 1" offset="204188" size="768" />
			<output>
				<port id="0" precision="FP16">
					<dim>1</dim>
					<dim>384</dim>
					<dim>1</dim>
					<dim>1</dim>
				</port>
			</output>
		</layer>
		<layer id="170" name="Reshape_922" type="Convert" version="opset1">
			<data destination_type="f32" />
			<rt_info>
				<attribute name="decompression" version="0" />
			</rt_info>
			<input>
				<port id="0" precision="FP16">
					<dim>1</dim>
					<dim>384</dim>
					<dim>1</dim>
					<dim>1</dim>
				</port>
			</input>
			<output>
				<port id="1" precision="FP32">
					<dim>1</dim>
					<dim>384</dim>
					<dim>1</dim>
					<dim>1</dim>
				</port>
			</output>
		</layer>
		<layer id="171" name="/backbone/stage4/unit2/conv1/conv/Conv" type="Add" version="opset1">
			<data auto_broadcast="numpy" />
			<input>
				<port id="0" precision="FP32">
					<dim>-1</dim>
					<dim>384</dim>
					<dim>46</dim>
					<dim>62</dim>
				</port>
				<port id="1" precision="FP32">
					<dim>1</dim>
					<dim>384</dim>
					<dim>1</dim>
					<dim>1</dim>
				</port>
			</input>
			<output>
				<port id="2" precision="FP32" names="/backbone/stage4/unit2/conv1/conv/Conv_output_0">
					<dim>-1</dim>
					<dim>384</dim>
					<dim>46</dim>
					<dim>62</dim>
				</port>
			</output>
		</layer>
		<layer id="172" name="/backbone/stage4/unit2/conv1/activ/Clip" type="Clamp" version="opset1">
			<data min="0" max="6" />
			<input>
				<port id="0" precision="FP32">
					<dim>-1</dim>
					<dim>384</dim>
					<dim>46</dim>
					<dim>62</dim>
				</port>
			</input>
			<output>
				<port id="1" precision="FP32" names="/backbone/stage4/unit2/conv1/activ/Clip_output_0">
					<dim>-1</dim>
					<dim>384</dim>
					<dim>46</dim>
					<dim>62</dim>
				</port>
			</output>
		</layer>
		<layer id="173" name="Reshape_937_compressed" type="Const" version="opset1">
			<data element_type="f16" shape="384, 1, 1, 3, 3" offset="204956" size="6912" />
			<output>
				<port id="0" precision="FP16">
					<dim>384</dim>
					<dim>1</dim>
					<dim>1</dim>
					<dim>3</dim>
					<dim>3</dim>
				</port>
			</output>
		</layer>
		<layer id="174" name="Reshape_937" type="Convert" version="opset1">
			<data destination_type="f32" />
			<rt_info>
				<attribute name="decompression" version="0" />
			</rt_info>
			<input>
				<port id="0" precision="FP16">
					<dim>384</dim>
					<dim>1</dim>
					<dim>1</dim>
					<dim>3</dim>
					<dim>3</dim>
				</port>
			</input>
			<output>
				<port id="1" precision="FP32">
					<dim>384</dim>
					<dim>1</dim>
					<dim>1</dim>
					<dim>3</dim>
					<dim>3</dim>
				</port>
			</output>
		</layer>
		<layer id="175" name="/backbone/stage4/unit2/conv2/conv/Conv/WithoutBiases" type="GroupConvolution" version="opset1">
			<data strides="1, 1" pads_begin="1, 1" pads_end="1, 1" dilations="1, 1" auto_pad="explicit" />
			<input>
				<port id="0" precision="FP32">
					<dim>-1</dim>
					<dim>384</dim>
					<dim>46</dim>
					<dim>62</dim>
				</port>
				<port id="1" precision="FP32">
					<dim>384</dim>
					<dim>1</dim>
					<dim>1</dim>
					<dim>3</dim>
					<dim>3</dim>
				</port>
			</input>
			<output>
				<port id="2" precision="FP32">
					<dim>-1</dim>
					<dim>384</dim>
					<dim>46</dim>
					<dim>62</dim>
				</port>
			</output>
		</layer>
		<layer id="176" name="Reshape_989_compressed" type="Const" version="opset1">
			<data element_type="f16" shape="1, 384, 1, 1" offset="211868" size="768" />
			<output>
				<port id="0" precision="FP16">
					<dim>1</dim>
					<dim>384</dim>
					<dim>1</dim>
					<dim>1</dim>
				</port>
			</output>
		</layer>
		<layer id="177" name="Reshape_989" type="Convert" version="opset1">
			<data destination_type="f32" />
			<rt_info>
				<attribute name="decompression" version="0" />
			</rt_info>
			<input>
				<port id="0" precision="FP16">
					<dim>1</dim>
					<dim>384</dim>
					<dim>1</dim>
					<dim>1</dim>
				</port>
			</input>
			<output>
				<port id="1" precision="FP32">
					<dim>1</dim>
					<dim>384</dim>
					<dim>1</dim>
					<dim>1</dim>
				</port>
			</output>
		</layer>
		<layer id="178" name="/backbone/stage4/unit2/conv2/conv/Conv" type="Add" version="opset1">
			<data auto_broadcast="numpy" />
			<input>
				<port id="0" precision="FP32">
					<dim>-1</dim>
					<dim>384</dim>
					<dim>46</dim>
					<dim>62</dim>
				</port>
				<port id="1" precision="FP32">
					<dim>1</dim>
					<dim>384</dim>
					<dim>1</dim>
					<dim>1</dim>
				</port>
			</input>
			<output>
				<port id="2" precision="FP32" names="/backbone/stage4/unit2/conv2/conv/Conv_output_0">
					<dim>-1</dim>
					<dim>384</dim>
					<dim>46</dim>
					<dim>62</dim>
				</port>
			</output>
		</layer>
		<layer id="179" name="/backbone/stage4/unit2/conv2/activ/Clip" type="Clamp" version="opset1">
			<data min="0" max="6" />
			<input>
				<port id="0" precision="FP32">
					<dim>-1</dim>
					<dim>384</dim>
					<dim>46</dim>
					<dim>62</dim>
				</port>
			</input>
			<output>
				<port id="1" precision="FP32" names="/backbone/stage4/unit2/conv2/activ/Clip_output_0">
					<dim>-1</dim>
					<dim>384</dim>
					<dim>46</dim>
					<dim>62</dim>
				</port>
			</output>
		</layer>
		<layer id="180" name="onnx::Conv_2362_compressed" type="Const" version="opset1">
			<data element_type="f16" shape="64, 384, 1, 1" offset="212636" size="49152" />
			<output>
				<port id="0" precision="FP16">
					<dim>64</dim>
					<dim>384</dim>
					<dim>1</dim>
					<dim>1</dim>
				</port>
			</output>
		</layer>
		<layer id="181" name="onnx::Conv_2362" type="Convert" version="opset1">
			<data destination_type="f32" />
			<rt_info>
				<attribute name="decompression" version="0" />
			</rt_info>
			<input>
				<port id="0" precision="FP16">
					<dim>64</dim>
					<dim>384</dim>
					<dim>1</dim>
					<dim>1</dim>
				</port>
			</input>
			<output>
				<port id="1" precision="FP32" names="onnx::Conv_2362">
					<dim>64</dim>
					<dim>384</dim>
					<dim>1</dim>
					<dim>1</dim>
				</port>
			</output>
		</layer>
		<layer id="182" name="/backbone/stage4/unit2/conv3/conv/Conv/WithoutBiases" type="Convolution" version="opset1">
			<data strides="1, 1" dilations="1, 1" pads_begin="0, 0" pads_end="0, 0" auto_pad="explicit" />
			<input>
				<port id="0" precision="FP32">
					<dim>-1</dim>
					<dim>384</dim>
					<dim>46</dim>
					<dim>62</dim>
				</port>
				<port id="1" precision="FP32">
					<dim>64</dim>
					<dim>384</dim>
					<dim>1</dim>
					<dim>1</dim>
				</port>
			</input>
			<output>
				<port id="2" precision="FP32">
					<dim>-1</dim>
					<dim>64</dim>
					<dim>46</dim>
					<dim>62</dim>
				</port>
			</output>
		</layer>
		<layer id="183" name="Reshape_1009_compressed" type="Const" version="opset1">
			<data element_type="f16" shape="1, 64, 1, 1" offset="261788" size="128" />
			<output>
				<port id="0" precision="FP16">
					<dim>1</dim>
					<dim>64</dim>
					<dim>1</dim>
					<dim>1</dim>
				</port>
			</output>
		</layer>
		<layer id="184" name="Reshape_1009" type="Convert" version="opset1">
			<data destination_type="f32" />
			<rt_info>
				<attribute name="decompression" version="0" />
			</rt_info>
			<input>
				<port id="0" precision="FP16">
					<dim>1</dim>
					<dim>64</dim>
					<dim>1</dim>
					<dim>1</dim>
				</port>
			</input>
			<output>
				<port id="1" precision="FP32">
					<dim>1</dim>
					<dim>64</dim>
					<dim>1</dim>
					<dim>1</dim>
				</port>
			</output>
		</layer>
		<layer id="185" name="/backbone/stage4/unit2/conv3/conv/Conv" type="Add" version="opset1">
			<data auto_broadcast="numpy" />
			<input>
				<port id="0" precision="FP32">
					<dim>-1</dim>
					<dim>64</dim>
					<dim>46</dim>
					<dim>62</dim>
				</port>
				<port id="1" precision="FP32">
					<dim>1</dim>
					<dim>64</dim>
					<dim>1</dim>
					<dim>1</dim>
				</port>
			</input>
			<output>
				<port id="2" precision="FP32" names="/backbone/stage4/unit2/conv3/conv/Conv_output_0">
					<dim>-1</dim>
					<dim>64</dim>
					<dim>46</dim>
					<dim>62</dim>
				</port>
			</output>
		</layer>
		<layer id="186" name="/backbone/stage4/unit2/Add" type="Add" version="opset1">
			<data auto_broadcast="numpy" />
			<input>
				<port id="0" precision="FP32">
					<dim>-1</dim>
					<dim>64</dim>
					<dim>46</dim>
					<dim>62</dim>
				</port>
				<port id="1" precision="FP32">
					<dim>-1</dim>
					<dim>64</dim>
					<dim>46</dim>
					<dim>62</dim>
				</port>
			</input>
			<output>
				<port id="2" precision="FP32" names="/backbone/stage4/unit2/Add_output_0">
					<dim>-1</dim>
					<dim>64</dim>
					<dim>46</dim>
					<dim>62</dim>
				</port>
			</output>
		</layer>
		<layer id="187" name="onnx::Conv_2365_compressed" type="Const" version="opset1">
			<data element_type="f16" shape="384, 64, 1, 1" offset="261916" size="49152" />
			<output>
				<port id="0" precision="FP16">
					<dim>384</dim>
					<dim>64</dim>
					<dim>1</dim>
					<dim>1</dim>
				</port>
			</output>
		</layer>
		<layer id="188" name="onnx::Conv_2365" type="Convert" version="opset1">
			<data destination_type="f32" />
			<rt_info>
				<attribute name="decompression" version="0" />
			</rt_info>
			<input>
				<port id="0" precision="FP16">
					<dim>384</dim>
					<dim>64</dim>
					<dim>1</dim>
					<dim>1</dim>
				</port>
			</input>
			<output>
				<port id="1" precision="FP32" names="onnx::Conv_2365">
					<dim>384</dim>
					<dim>64</dim>
					<dim>1</dim>
					<dim>1</dim>
				</port>
			</output>
		</layer>
		<layer id="189" name="/backbone/stage4/unit3/conv1/conv/Conv/WithoutBiases" type="Convolution" version="opset1">
			<data strides="1, 1" dilations="1, 1" pads_begin="0, 0" pads_end="0, 0" auto_pad="explicit" />
			<input>
				<port id="0" precision="FP32">
					<dim>-1</dim>
					<dim>64</dim>
					<dim>46</dim>
					<dim>62</dim>
				</port>
				<port id="1" precision="FP32">
					<dim>384</dim>
					<dim>64</dim>
					<dim>1</dim>
					<dim>1</dim>
				</port>
			</input>
			<output>
				<port id="2" precision="FP32">
					<dim>-1</dim>
					<dim>384</dim>
					<dim>46</dim>
					<dim>62</dim>
				</port>
			</output>
		</layer>
		<layer id="190" name="Reshape_1026_compressed" type="Const" version="opset1">
			<data element_type="f16" shape="1, 384, 1, 1" offset="311068" size="768" />
			<output>
				<port id="0" precision="FP16">
					<dim>1</dim>
					<dim>384</dim>
					<dim>1</dim>
					<dim>1</dim>
				</port>
			</output>
		</layer>
		<layer id="191" name="Reshape_1026" type="Convert" version="opset1">
			<data destination_type="f32" />
			<rt_info>
				<attribute name="decompression" version="0" />
			</rt_info>
			<input>
				<port id="0" precision="FP16">
					<dim>1</dim>
					<dim>384</dim>
					<dim>1</dim>
					<dim>1</dim>
				</port>
			</input>
			<output>
				<port id="1" precision="FP32">
					<dim>1</dim>
					<dim>384</dim>
					<dim>1</dim>
					<dim>1</dim>
				</port>
			</output>
		</layer>
		<layer id="192" name="/backbone/stage4/unit3/conv1/conv/Conv" type="Add" version="opset1">
			<data auto_broadcast="numpy" />
			<input>
				<port id="0" precision="FP32">
					<dim>-1</dim>
					<dim>384</dim>
					<dim>46</dim>
					<dim>62</dim>
				</port>
				<port id="1" precision="FP32">
					<dim>1</dim>
					<dim>384</dim>
					<dim>1</dim>
					<dim>1</dim>
				</port>
			</input>
			<output>
				<port id="2" precision="FP32" names="/backbone/stage4/unit3/conv1/conv/Conv_output_0">
					<dim>-1</dim>
					<dim>384</dim>
					<dim>46</dim>
					<dim>62</dim>
				</port>
			</output>
		</layer>
		<layer id="193" name="/backbone/stage4/unit3/conv1/activ/Clip" type="Clamp" version="opset1">
			<data min="0" max="6" />
			<input>
				<port id="0" precision="FP32">
					<dim>-1</dim>
					<dim>384</dim>
					<dim>46</dim>
					<dim>62</dim>
				</port>
			</input>
			<output>
				<port id="1" precision="FP32" names="/backbone/stage4/unit3/conv1/activ/Clip_output_0">
					<dim>-1</dim>
					<dim>384</dim>
					<dim>46</dim>
					<dim>62</dim>
				</port>
			</output>
		</layer>
		<layer id="194" name="Reshape_1041_compressed" type="Const" version="opset1">
			<data element_type="f16" shape="384, 1, 1, 3, 3" offset="311836" size="6912" />
			<output>
				<port id="0" precision="FP16">
					<dim>384</dim>
					<dim>1</dim>
					<dim>1</dim>
					<dim>3</dim>
					<dim>3</dim>
				</port>
			</output>
		</layer>
		<layer id="195" name="Reshape_1041" type="Convert" version="opset1">
			<data destination_type="f32" />
			<rt_info>
				<attribute name="decompression" version="0" />
			</rt_info>
			<input>
				<port id="0" precision="FP16">
					<dim>384</dim>
					<dim>1</dim>
					<dim>1</dim>
					<dim>3</dim>
					<dim>3</dim>
				</port>
			</input>
			<output>
				<port id="1" precision="FP32">
					<dim>384</dim>
					<dim>1</dim>
					<dim>1</dim>
					<dim>3</dim>
					<dim>3</dim>
				</port>
			</output>
		</layer>
		<layer id="196" name="/backbone/stage4/unit3/conv2/conv/Conv/WithoutBiases" type="GroupConvolution" version="opset1">
			<data strides="1, 1" pads_begin="1, 1" pads_end="1, 1" dilations="1, 1" auto_pad="explicit" />
			<input>
				<port id="0" precision="FP32">
					<dim>-1</dim>
					<dim>384</dim>
					<dim>46</dim>
					<dim>62</dim>
				</port>
				<port id="1" precision="FP32">
					<dim>384</dim>
					<dim>1</dim>
					<dim>1</dim>
					<dim>3</dim>
					<dim>3</dim>
				</port>
			</input>
			<output>
				<port id="2" precision="FP32">
					<dim>-1</dim>
					<dim>384</dim>
					<dim>46</dim>
					<dim>62</dim>
				</port>
			</output>
		</layer>
		<layer id="197" name="Reshape_1093_compressed" type="Const" version="opset1">
			<data element_type="f16" shape="1, 384, 1, 1" offset="318748" size="768" />
			<output>
				<port id="0" precision="FP16">
					<dim>1</dim>
					<dim>384</dim>
					<dim>1</dim>
					<dim>1</dim>
				</port>
			</output>
		</layer>
		<layer id="198" name="Reshape_1093" type="Convert" version="opset1">
			<data destination_type="f32" />
			<rt_info>
				<attribute name="decompression" version="0" />
			</rt_info>
			<input>
				<port id="0" precision="FP16">
					<dim>1</dim>
					<dim>384</dim>
					<dim>1</dim>
					<dim>1</dim>
				</port>
			</input>
			<output>
				<port id="1" precision="FP32">
					<dim>1</dim>
					<dim>384</dim>
					<dim>1</dim>
					<dim>1</dim>
				</port>
			</output>
		</layer>
		<layer id="199" name="/backbone/stage4/unit3/conv2/conv/Conv" type="Add" version="opset1">
			<data auto_broadcast="numpy" />
			<input>
				<port id="0" precision="FP32">
					<dim>-1</dim>
					<dim>384</dim>
					<dim>46</dim>
					<dim>62</dim>
				</port>
				<port id="1" precision="FP32">
					<dim>1</dim>
					<dim>384</dim>
					<dim>1</dim>
					<dim>1</dim>
				</port>
			</input>
			<output>
				<port id="2" precision="FP32" names="/backbone/stage4/unit3/conv2/conv/Conv_output_0">
					<dim>-1</dim>
					<dim>384</dim>
					<dim>46</dim>
					<dim>62</dim>
				</port>
			</output>
		</layer>
		<layer id="200" name="/backbone/stage4/unit3/conv2/activ/Clip" type="Clamp" version="opset1">
			<data min="0" max="6" />
			<input>
				<port id="0" precision="FP32">
					<dim>-1</dim>
					<dim>384</dim>
					<dim>46</dim>
					<dim>62</dim>
				</port>
			</input>
			<output>
				<port id="1" precision="FP32" names="/backbone/stage4/unit3/conv2/activ/Clip_output_0">
					<dim>-1</dim>
					<dim>384</dim>
					<dim>46</dim>
					<dim>62</dim>
				</port>
			</output>
		</layer>
		<layer id="201" name="onnx::Conv_2371_compressed" type="Const" version="opset1">
			<data element_type="f16" shape="64, 384, 1, 1" offset="319516" size="49152" />
			<output>
				<port id="0" precision="FP16">
					<dim>64</dim>
					<dim>384</dim>
					<dim>1</dim>
					<dim>1</dim>
				</port>
			</output>
		</layer>
		<layer id="202" name="onnx::Conv_2371" type="Convert" version="opset1">
			<data destination_type="f32" />
			<rt_info>
				<attribute name="decompression" version="0" />
			</rt_info>
			<input>
				<port id="0" precision="FP16">
					<dim>64</dim>
					<dim>384</dim>
					<dim>1</dim>
					<dim>1</dim>
				</port>
			</input>
			<output>
				<port id="1" precision="FP32" names="onnx::Conv_2371">
					<dim>64</dim>
					<dim>384</dim>
					<dim>1</dim>
					<dim>1</dim>
				</port>
			</output>
		</layer>
		<layer id="203" name="/backbone/stage4/unit3/conv3/conv/Conv/WithoutBiases" type="Convolution" version="opset1">
			<data strides="1, 1" dilations="1, 1" pads_begin="0, 0" pads_end="0, 0" auto_pad="explicit" />
			<input>
				<port id="0" precision="FP32">
					<dim>-1</dim>
					<dim>384</dim>
					<dim>46</dim>
					<dim>62</dim>
				</port>
				<port id="1" precision="FP32">
					<dim>64</dim>
					<dim>384</dim>
					<dim>1</dim>
					<dim>1</dim>
				</port>
			</input>
			<output>
				<port id="2" precision="FP32">
					<dim>-1</dim>
					<dim>64</dim>
					<dim>46</dim>
					<dim>62</dim>
				</port>
			</output>
		</layer>
		<layer id="204" name="Reshape_1113_compressed" type="Const" version="opset1">
			<data element_type="f16" shape="1, 64, 1, 1" offset="368668" size="128" />
			<output>
				<port id="0" precision="FP16">
					<dim>1</dim>
					<dim>64</dim>
					<dim>1</dim>
					<dim>1</dim>
				</port>
			</output>
		</layer>
		<layer id="205" name="Reshape_1113" type="Convert" version="opset1">
			<data destination_type="f32" />
			<rt_info>
				<attribute name="decompression" version="0" />
			</rt_info>
			<input>
				<port id="0" precision="FP16">
					<dim>1</dim>
					<dim>64</dim>
					<dim>1</dim>
					<dim>1</dim>
				</port>
			</input>
			<output>
				<port id="1" precision="FP32">
					<dim>1</dim>
					<dim>64</dim>
					<dim>1</dim>
					<dim>1</dim>
				</port>
			</output>
		</layer>
		<layer id="206" name="/backbone/stage4/unit3/conv3/conv/Conv" type="Add" version="opset1">
			<data auto_broadcast="numpy" />
			<input>
				<port id="0" precision="FP32">
					<dim>-1</dim>
					<dim>64</dim>
					<dim>46</dim>
					<dim>62</dim>
				</port>
				<port id="1" precision="FP32">
					<dim>1</dim>
					<dim>64</dim>
					<dim>1</dim>
					<dim>1</dim>
				</port>
			</input>
			<output>
				<port id="2" precision="FP32" names="/backbone/stage4/unit3/conv3/conv/Conv_output_0">
					<dim>-1</dim>
					<dim>64</dim>
					<dim>46</dim>
					<dim>62</dim>
				</port>
			</output>
		</layer>
		<layer id="207" name="/backbone/stage4/unit3/Add" type="Add" version="opset1">
			<data auto_broadcast="numpy" />
			<input>
				<port id="0" precision="FP32">
					<dim>-1</dim>
					<dim>64</dim>
					<dim>46</dim>
					<dim>62</dim>
				</port>
				<port id="1" precision="FP32">
					<dim>-1</dim>
					<dim>64</dim>
					<dim>46</dim>
					<dim>62</dim>
				</port>
			</input>
			<output>
				<port id="2" precision="FP32" names="/backbone/stage4/unit3/Add_output_0">
					<dim>-1</dim>
					<dim>64</dim>
					<dim>46</dim>
					<dim>62</dim>
				</port>
			</output>
		</layer>
		<layer id="208" name="onnx::Conv_2374_compressed" type="Const" version="opset1">
			<data element_type="f16" shape="384, 64, 1, 1" offset="368796" size="49152" />
			<output>
				<port id="0" precision="FP16">
					<dim>384</dim>
					<dim>64</dim>
					<dim>1</dim>
					<dim>1</dim>
				</port>
			</output>
		</layer>
		<layer id="209" name="onnx::Conv_2374" type="Convert" version="opset1">
			<data destination_type="f32" />
			<rt_info>
				<attribute name="decompression" version="0" />
			</rt_info>
			<input>
				<port id="0" precision="FP16">
					<dim>384</dim>
					<dim>64</dim>
					<dim>1</dim>
					<dim>1</dim>
				</port>
			</input>
			<output>
				<port id="1" precision="FP32" names="onnx::Conv_2374">
					<dim>384</dim>
					<dim>64</dim>
					<dim>1</dim>
					<dim>1</dim>
				</port>
			</output>
		</layer>
		<layer id="210" name="/backbone/stage4/unit4/conv1/conv/Conv/WithoutBiases" type="Convolution" version="opset1">
			<data strides="1, 1" dilations="1, 1" pads_begin="0, 0" pads_end="0, 0" auto_pad="explicit" />
			<input>
				<port id="0" precision="FP32">
					<dim>-1</dim>
					<dim>64</dim>
					<dim>46</dim>
					<dim>62</dim>
				</port>
				<port id="1" precision="FP32">
					<dim>384</dim>
					<dim>64</dim>
					<dim>1</dim>
					<dim>1</dim>
				</port>
			</input>
			<output>
				<port id="2" precision="FP32">
					<dim>-1</dim>
					<dim>384</dim>
					<dim>46</dim>
					<dim>62</dim>
				</port>
			</output>
		</layer>
		<layer id="211" name="Reshape_1130_compressed" type="Const" version="opset1">
			<data element_type="f16" shape="1, 384, 1, 1" offset="417948" size="768" />
			<output>
				<port id="0" precision="FP16">
					<dim>1</dim>
					<dim>384</dim>
					<dim>1</dim>
					<dim>1</dim>
				</port>
			</output>
		</layer>
		<layer id="212" name="Reshape_1130" type="Convert" version="opset1">
			<data destination_type="f32" />
			<rt_info>
				<attribute name="decompression" version="0" />
			</rt_info>
			<input>
				<port id="0" precision="FP16">
					<dim>1</dim>
					<dim>384</dim>
					<dim>1</dim>
					<dim>1</dim>
				</port>
			</input>
			<output>
				<port id="1" precision="FP32">
					<dim>1</dim>
					<dim>384</dim>
					<dim>1</dim>
					<dim>1</dim>
				</port>
			</output>
		</layer>
		<layer id="213" name="/backbone/stage4/unit4/conv1/conv/Conv" type="Add" version="opset1">
			<data auto_broadcast="numpy" />
			<input>
				<port id="0" precision="FP32">
					<dim>-1</dim>
					<dim>384</dim>
					<dim>46</dim>
					<dim>62</dim>
				</port>
				<port id="1" precision="FP32">
					<dim>1</dim>
					<dim>384</dim>
					<dim>1</dim>
					<dim>1</dim>
				</port>
			</input>
			<output>
				<port id="2" precision="FP32" names="/backbone/stage4/unit4/conv1/conv/Conv_output_0">
					<dim>-1</dim>
					<dim>384</dim>
					<dim>46</dim>
					<dim>62</dim>
				</port>
			</output>
		</layer>
		<layer id="214" name="/backbone/stage4/unit4/conv1/activ/Clip" type="Clamp" version="opset1">
			<data min="0" max="6" />
			<input>
				<port id="0" precision="FP32">
					<dim>-1</dim>
					<dim>384</dim>
					<dim>46</dim>
					<dim>62</dim>
				</port>
			</input>
			<output>
				<port id="1" precision="FP32" names="/backbone/stage4/unit4/conv1/activ/Clip_output_0">
					<dim>-1</dim>
					<dim>384</dim>
					<dim>46</dim>
					<dim>62</dim>
				</port>
			</output>
		</layer>
		<layer id="215" name="Reshape_1145_compressed" type="Const" version="opset1">
			<data element_type="f16" shape="384, 1, 1, 3, 3" offset="418716" size="6912" />
			<output>
				<port id="0" precision="FP16">
					<dim>384</dim>
					<dim>1</dim>
					<dim>1</dim>
					<dim>3</dim>
					<dim>3</dim>
				</port>
			</output>
		</layer>
		<layer id="216" name="Reshape_1145" type="Convert" version="opset1">
			<data destination_type="f32" />
			<rt_info>
				<attribute name="decompression" version="0" />
			</rt_info>
			<input>
				<port id="0" precision="FP16">
					<dim>384</dim>
					<dim>1</dim>
					<dim>1</dim>
					<dim>3</dim>
					<dim>3</dim>
				</port>
			</input>
			<output>
				<port id="1" precision="FP32">
					<dim>384</dim>
					<dim>1</dim>
					<dim>1</dim>
					<dim>3</dim>
					<dim>3</dim>
				</port>
			</output>
		</layer>
		<layer id="217" name="/backbone/stage4/unit4/conv2/conv/Conv/WithoutBiases" type="GroupConvolution" version="opset1">
			<data strides="1, 1" pads_begin="1, 1" pads_end="1, 1" dilations="1, 1" auto_pad="explicit" />
			<input>
				<port id="0" precision="FP32">
					<dim>-1</dim>
					<dim>384</dim>
					<dim>46</dim>
					<dim>62</dim>
				</port>
				<port id="1" precision="FP32">
					<dim>384</dim>
					<dim>1</dim>
					<dim>1</dim>
					<dim>3</dim>
					<dim>3</dim>
				</port>
			</input>
			<output>
				<port id="2" precision="FP32">
					<dim>-1</dim>
					<dim>384</dim>
					<dim>46</dim>
					<dim>62</dim>
				</port>
			</output>
		</layer>
		<layer id="218" name="Reshape_1197_compressed" type="Const" version="opset1">
			<data element_type="f16" shape="1, 384, 1, 1" offset="425628" size="768" />
			<output>
				<port id="0" precision="FP16">
					<dim>1</dim>
					<dim>384</dim>
					<dim>1</dim>
					<dim>1</dim>
				</port>
			</output>
		</layer>
		<layer id="219" name="Reshape_1197" type="Convert" version="opset1">
			<data destination_type="f32" />
			<rt_info>
				<attribute name="decompression" version="0" />
			</rt_info>
			<input>
				<port id="0" precision="FP16">
					<dim>1</dim>
					<dim>384</dim>
					<dim>1</dim>
					<dim>1</dim>
				</port>
			</input>
			<output>
				<port id="1" precision="FP32">
					<dim>1</dim>
					<dim>384</dim>
					<dim>1</dim>
					<dim>1</dim>
				</port>
			</output>
		</layer>
		<layer id="220" name="/backbone/stage4/unit4/conv2/conv/Conv" type="Add" version="opset1">
			<data auto_broadcast="numpy" />
			<input>
				<port id="0" precision="FP32">
					<dim>-1</dim>
					<dim>384</dim>
					<dim>46</dim>
					<dim>62</dim>
				</port>
				<port id="1" precision="FP32">
					<dim>1</dim>
					<dim>384</dim>
					<dim>1</dim>
					<dim>1</dim>
				</port>
			</input>
			<output>
				<port id="2" precision="FP32" names="/backbone/stage4/unit4/conv2/conv/Conv_output_0">
					<dim>-1</dim>
					<dim>384</dim>
					<dim>46</dim>
					<dim>62</dim>
				</port>
			</output>
		</layer>
		<layer id="221" name="/backbone/stage4/unit4/conv2/activ/Clip" type="Clamp" version="opset1">
			<data min="0" max="6" />
			<input>
				<port id="0" precision="FP32">
					<dim>-1</dim>
					<dim>384</dim>
					<dim>46</dim>
					<dim>62</dim>
				</port>
			</input>
			<output>
				<port id="1" precision="FP32" names="/backbone/stage4/unit4/conv2/activ/Clip_output_0">
					<dim>-1</dim>
					<dim>384</dim>
					<dim>46</dim>
					<dim>62</dim>
				</port>
			</output>
		</layer>
		<layer id="222" name="onnx::Conv_2380_compressed" type="Const" version="opset1">
			<data element_type="f16" shape="64, 384, 1, 1" offset="426396" size="49152" />
			<output>
				<port id="0" precision="FP16">
					<dim>64</dim>
					<dim>384</dim>
					<dim>1</dim>
					<dim>1</dim>
				</port>
			</output>
		</layer>
		<layer id="223" name="onnx::Conv_2380" type="Convert" version="opset1">
			<data destination_type="f32" />
			<rt_info>
				<attribute name="decompression" version="0" />
			</rt_info>
			<input>
				<port id="0" precision="FP16">
					<dim>64</dim>
					<dim>384</dim>
					<dim>1</dim>
					<dim>1</dim>
				</port>
			</input>
			<output>
				<port id="1" precision="FP32" names="onnx::Conv_2380">
					<dim>64</dim>
					<dim>384</dim>
					<dim>1</dim>
					<dim>1</dim>
				</port>
			</output>
		</layer>
		<layer id="224" name="/backbone/stage4/unit4/conv3/conv/Conv/WithoutBiases" type="Convolution" version="opset1">
			<data strides="1, 1" dilations="1, 1" pads_begin="0, 0" pads_end="0, 0" auto_pad="explicit" />
			<input>
				<port id="0" precision="FP32">
					<dim>-1</dim>
					<dim>384</dim>
					<dim>46</dim>
					<dim>62</dim>
				</port>
				<port id="1" precision="FP32">
					<dim>64</dim>
					<dim>384</dim>
					<dim>1</dim>
					<dim>1</dim>
				</port>
			</input>
			<output>
				<port id="2" precision="FP32">
					<dim>-1</dim>
					<dim>64</dim>
					<dim>46</dim>
					<dim>62</dim>
				</port>
			</output>
		</layer>
		<layer id="225" name="Reshape_1217_compressed" type="Const" version="opset1">
			<data element_type="f16" shape="1, 64, 1, 1" offset="475548" size="128" />
			<output>
				<port id="0" precision="FP16">
					<dim>1</dim>
					<dim>64</dim>
					<dim>1</dim>
					<dim>1</dim>
				</port>
			</output>
		</layer>
		<layer id="226" name="Reshape_1217" type="Convert" version="opset1">
			<data destination_type="f32" />
			<rt_info>
				<attribute name="decompression" version="0" />
			</rt_info>
			<input>
				<port id="0" precision="FP16">
					<dim>1</dim>
					<dim>64</dim>
					<dim>1</dim>
					<dim>1</dim>
				</port>
			</input>
			<output>
				<port id="1" precision="FP32">
					<dim>1</dim>
					<dim>64</dim>
					<dim>1</dim>
					<dim>1</dim>
				</port>
			</output>
		</layer>
		<layer id="227" name="/backbone/stage4/unit4/conv3/conv/Conv" type="Add" version="opset1">
			<data auto_broadcast="numpy" />
			<input>
				<port id="0" precision="FP32">
					<dim>-1</dim>
					<dim>64</dim>
					<dim>46</dim>
					<dim>62</dim>
				</port>
				<port id="1" precision="FP32">
					<dim>1</dim>
					<dim>64</dim>
					<dim>1</dim>
					<dim>1</dim>
				</port>
			</input>
			<output>
				<port id="2" precision="FP32" names="/backbone/stage4/unit4/conv3/conv/Conv_output_0">
					<dim>-1</dim>
					<dim>64</dim>
					<dim>46</dim>
					<dim>62</dim>
				</port>
			</output>
		</layer>
		<layer id="228" name="/backbone/stage4/unit4/Add" type="Add" version="opset1">
			<data auto_broadcast="numpy" />
			<input>
				<port id="0" precision="FP32">
					<dim>-1</dim>
					<dim>64</dim>
					<dim>46</dim>
					<dim>62</dim>
				</port>
				<port id="1" precision="FP32">
					<dim>-1</dim>
					<dim>64</dim>
					<dim>46</dim>
					<dim>62</dim>
				</port>
			</input>
			<output>
				<port id="2" precision="FP32" names="/backbone/stage4/unit4/Add_output_0">
					<dim>-1</dim>
					<dim>64</dim>
					<dim>46</dim>
					<dim>62</dim>
				</port>
			</output>
		</layer>
		<layer id="229" name="onnx::Conv_2383_compressed" type="Const" version="opset1">
			<data element_type="f16" shape="384, 64, 1, 1" offset="475676" size="49152" />
			<output>
				<port id="0" precision="FP16">
					<dim>384</dim>
					<dim>64</dim>
					<dim>1</dim>
					<dim>1</dim>
				</port>
			</output>
		</layer>
		<layer id="230" name="onnx::Conv_2383" type="Convert" version="opset1">
			<data destination_type="f32" />
			<rt_info>
				<attribute name="decompression" version="0" />
			</rt_info>
			<input>
				<port id="0" precision="FP16">
					<dim>384</dim>
					<dim>64</dim>
					<dim>1</dim>
					<dim>1</dim>
				</port>
			</input>
			<output>
				<port id="1" precision="FP32" names="onnx::Conv_2383">
					<dim>384</dim>
					<dim>64</dim>
					<dim>1</dim>
					<dim>1</dim>
				</port>
			</output>
		</layer>
		<layer id="231" name="/backbone/stage4/unit5/conv1/conv/Conv/WithoutBiases" type="Convolution" version="opset1">
			<data strides="1, 1" dilations="1, 1" pads_begin="0, 0" pads_end="0, 0" auto_pad="explicit" />
			<input>
				<port id="0" precision="FP32">
					<dim>-1</dim>
					<dim>64</dim>
					<dim>46</dim>
					<dim>62</dim>
				</port>
				<port id="1" precision="FP32">
					<dim>384</dim>
					<dim>64</dim>
					<dim>1</dim>
					<dim>1</dim>
				</port>
			</input>
			<output>
				<port id="2" precision="FP32">
					<dim>-1</dim>
					<dim>384</dim>
					<dim>46</dim>
					<dim>62</dim>
				</port>
			</output>
		</layer>
		<layer id="232" name="Reshape_1234_compressed" type="Const" version="opset1">
			<data element_type="f16" shape="1, 384, 1, 1" offset="524828" size="768" />
			<output>
				<port id="0" precision="FP16">
					<dim>1</dim>
					<dim>384</dim>
					<dim>1</dim>
					<dim>1</dim>
				</port>
			</output>
		</layer>
		<layer id="233" name="Reshape_1234" type="Convert" version="opset1">
			<data destination_type="f32" />
			<rt_info>
				<attribute name="decompression" version="0" />
			</rt_info>
			<input>
				<port id="0" precision="FP16">
					<dim>1</dim>
					<dim>384</dim>
					<dim>1</dim>
					<dim>1</dim>
				</port>
			</input>
			<output>
				<port id="1" precision="FP32">
					<dim>1</dim>
					<dim>384</dim>
					<dim>1</dim>
					<dim>1</dim>
				</port>
			</output>
		</layer>
		<layer id="234" name="/backbone/stage4/unit5/conv1/conv/Conv" type="Add" version="opset1">
			<data auto_broadcast="numpy" />
			<input>
				<port id="0" precision="FP32">
					<dim>-1</dim>
					<dim>384</dim>
					<dim>46</dim>
					<dim>62</dim>
				</port>
				<port id="1" precision="FP32">
					<dim>1</dim>
					<dim>384</dim>
					<dim>1</dim>
					<dim>1</dim>
				</port>
			</input>
			<output>
				<port id="2" precision="FP32" names="/backbone/stage4/unit5/conv1/conv/Conv_output_0">
					<dim>-1</dim>
					<dim>384</dim>
					<dim>46</dim>
					<dim>62</dim>
				</port>
			</output>
		</layer>
		<layer id="235" name="/backbone/stage4/unit5/conv1/activ/Clip" type="Clamp" version="opset1">
			<data min="0" max="6" />
			<input>
				<port id="0" precision="FP32">
					<dim>-1</dim>
					<dim>384</dim>
					<dim>46</dim>
					<dim>62</dim>
				</port>
			</input>
			<output>
				<port id="1" precision="FP32" names="/backbone/stage4/unit5/conv1/activ/Clip_output_0">
					<dim>-1</dim>
					<dim>384</dim>
					<dim>46</dim>
					<dim>62</dim>
				</port>
			</output>
		</layer>
		<layer id="236" name="Reshape_1249_compressed" type="Const" version="opset1">
			<data element_type="f16" shape="384, 1, 1, 3, 3" offset="525596" size="6912" />
			<output>
				<port id="0" precision="FP16">
					<dim>384</dim>
					<dim>1</dim>
					<dim>1</dim>
					<dim>3</dim>
					<dim>3</dim>
				</port>
			</output>
		</layer>
		<layer id="237" name="Reshape_1249" type="Convert" version="opset1">
			<data destination_type="f32" />
			<rt_info>
				<attribute name="decompression" version="0" />
			</rt_info>
			<input>
				<port id="0" precision="FP16">
					<dim>384</dim>
					<dim>1</dim>
					<dim>1</dim>
					<dim>3</dim>
					<dim>3</dim>
				</port>
			</input>
			<output>
				<port id="1" precision="FP32">
					<dim>384</dim>
					<dim>1</dim>
					<dim>1</dim>
					<dim>3</dim>
					<dim>3</dim>
				</port>
			</output>
		</layer>
		<layer id="238" name="/backbone/stage4/unit5/conv2/conv/Conv/WithoutBiases" type="GroupConvolution" version="opset1">
			<data strides="1, 1" pads_begin="1, 1" pads_end="1, 1" dilations="1, 1" auto_pad="explicit" />
			<input>
				<port id="0" precision="FP32">
					<dim>-1</dim>
					<dim>384</dim>
					<dim>46</dim>
					<dim>62</dim>
				</port>
				<port id="1" precision="FP32">
					<dim>384</dim>
					<dim>1</dim>
					<dim>1</dim>
					<dim>3</dim>
					<dim>3</dim>
				</port>
			</input>
			<output>
				<port id="2" precision="FP32">
					<dim>-1</dim>
					<dim>384</dim>
					<dim>46</dim>
					<dim>62</dim>
				</port>
			</output>
		</layer>
		<layer id="239" name="Reshape_1301_compressed" type="Const" version="opset1">
			<data element_type="f16" shape="1, 384, 1, 1" offset="532508" size="768" />
			<output>
				<port id="0" precision="FP16">
					<dim>1</dim>
					<dim>384</dim>
					<dim>1</dim>
					<dim>1</dim>
				</port>
			</output>
		</layer>
		<layer id="240" name="Reshape_1301" type="Convert" version="opset1">
			<data destination_type="f32" />
			<rt_info>
				<attribute name="decompression" version="0" />
			</rt_info>
			<input>
				<port id="0" precision="FP16">
					<dim>1</dim>
					<dim>384</dim>
					<dim>1</dim>
					<dim>1</dim>
				</port>
			</input>
			<output>
				<port id="1" precision="FP32">
					<dim>1</dim>
					<dim>384</dim>
					<dim>1</dim>
					<dim>1</dim>
				</port>
			</output>
		</layer>
		<layer id="241" name="/backbone/stage4/unit5/conv2/conv/Conv" type="Add" version="opset1">
			<data auto_broadcast="numpy" />
			<input>
				<port id="0" precision="FP32">
					<dim>-1</dim>
					<dim>384</dim>
					<dim>46</dim>
					<dim>62</dim>
				</port>
				<port id="1" precision="FP32">
					<dim>1</dim>
					<dim>384</dim>
					<dim>1</dim>
					<dim>1</dim>
				</port>
			</input>
			<output>
				<port id="2" precision="FP32" names="/backbone/stage4/unit5/conv2/conv/Conv_output_0">
					<dim>-1</dim>
					<dim>384</dim>
					<dim>46</dim>
					<dim>62</dim>
				</port>
			</output>
		</layer>
		<layer id="242" name="/backbone/stage4/unit5/conv2/activ/Clip" type="Clamp" version="opset1">
			<data min="0" max="6" />
			<input>
				<port id="0" precision="FP32">
					<dim>-1</dim>
					<dim>384</dim>
					<dim>46</dim>
					<dim>62</dim>
				</port>
			</input>
			<output>
				<port id="1" precision="FP32" names="/backbone/stage4/unit5/conv2/activ/Clip_output_0">
					<dim>-1</dim>
					<dim>384</dim>
					<dim>46</dim>
					<dim>62</dim>
				</port>
			</output>
		</layer>
		<layer id="243" name="onnx::Conv_2389_compressed" type="Const" version="opset1">
			<data element_type="f16" shape="96, 384, 1, 1" offset="533276" size="73728" />
			<output>
				<port id="0" precision="FP16">
					<dim>96</dim>
					<dim>384</dim>
					<dim>1</dim>
					<dim>1</dim>
				</port>
			</output>
		</layer>
		<layer id="244" name="onnx::Conv_2389" type="Convert" version="opset1">
			<data destination_type="f32" />
			<rt_info>
				<attribute name="decompression" version="0" />
			</rt_info>
			<input>
				<port id="0" precision="FP16">
					<dim>96</dim>
					<dim>384</dim>
					<dim>1</dim>
					<dim>1</dim>
				</port>
			</input>
			<output>
				<port id="1" precision="FP32" names="onnx::Conv_2389">
					<dim>96</dim>
					<dim>384</dim>
					<dim>1</dim>
					<dim>1</dim>
				</port>
			</output>
		</layer>
		<layer id="245" name="/backbone/stage4/unit5/conv3/conv/Conv/WithoutBiases" type="Convolution" version="opset1">
			<data strides="1, 1" dilations="1, 1" pads_begin="0, 0" pads_end="0, 0" auto_pad="explicit" />
			<input>
				<port id="0" precision="FP32">
					<dim>-1</dim>
					<dim>384</dim>
					<dim>46</dim>
					<dim>62</dim>
				</port>
				<port id="1" precision="FP32">
					<dim>96</dim>
					<dim>384</dim>
					<dim>1</dim>
					<dim>1</dim>
				</port>
			</input>
			<output>
				<port id="2" precision="FP32">
					<dim>-1</dim>
					<dim>96</dim>
					<dim>46</dim>
					<dim>62</dim>
				</port>
			</output>
		</layer>
		<layer id="246" name="Reshape_1321_compressed" type="Const" version="opset1">
			<data element_type="f16" shape="1, 96, 1, 1" offset="607004" size="192" />
			<output>
				<port id="0" precision="FP16">
					<dim>1</dim>
					<dim>96</dim>
					<dim>1</dim>
					<dim>1</dim>
				</port>
			</output>
		</layer>
		<layer id="247" name="Reshape_1321" type="Convert" version="opset1">
			<data destination_type="f32" />
			<rt_info>
				<attribute name="decompression" version="0" />
			</rt_info>
			<input>
				<port id="0" precision="FP16">
					<dim>1</dim>
					<dim>96</dim>
					<dim>1</dim>
					<dim>1</dim>
				</port>
			</input>
			<output>
				<port id="1" precision="FP32">
					<dim>1</dim>
					<dim>96</dim>
					<dim>1</dim>
					<dim>1</dim>
				</port>
			</output>
		</layer>
		<layer id="248" name="/backbone/stage4/unit5/conv3/conv/Conv" type="Add" version="opset1">
			<data auto_broadcast="numpy" />
			<input>
				<port id="0" precision="FP32">
					<dim>-1</dim>
					<dim>96</dim>
					<dim>46</dim>
					<dim>62</dim>
				</port>
				<port id="1" precision="FP32">
					<dim>1</dim>
					<dim>96</dim>
					<dim>1</dim>
					<dim>1</dim>
				</port>
			</input>
			<output>
				<port id="2" precision="FP32" names="/backbone/stage4/unit5/conv3/conv/Conv_output_0">
					<dim>-1</dim>
					<dim>96</dim>
					<dim>46</dim>
					<dim>62</dim>
				</port>
			</output>
		</layer>
		<layer id="249" name="onnx::Conv_2392_compressed" type="Const" version="opset1">
			<data element_type="f16" shape="576, 96, 1, 1" offset="607196" size="110592" />
			<output>
				<port id="0" precision="FP16">
					<dim>576</dim>
					<dim>96</dim>
					<dim>1</dim>
					<dim>1</dim>
				</port>
			</output>
		</layer>
		<layer id="250" name="onnx::Conv_2392" type="Convert" version="opset1">
			<data destination_type="f32" />
			<rt_info>
				<attribute name="decompression" version="0" />
			</rt_info>
			<input>
				<port id="0" precision="FP16">
					<dim>576</dim>
					<dim>96</dim>
					<dim>1</dim>
					<dim>1</dim>
				</port>
			</input>
			<output>
				<port id="1" precision="FP32" names="onnx::Conv_2392">
					<dim>576</dim>
					<dim>96</dim>
					<dim>1</dim>
					<dim>1</dim>
				</port>
			</output>
		</layer>
		<layer id="251" name="/backbone/stage4/unit6/conv1/conv/Conv/WithoutBiases" type="Convolution" version="opset1">
			<data strides="1, 1" dilations="1, 1" pads_begin="0, 0" pads_end="0, 0" auto_pad="explicit" />
			<input>
				<port id="0" precision="FP32">
					<dim>-1</dim>
					<dim>96</dim>
					<dim>46</dim>
					<dim>62</dim>
				</port>
				<port id="1" precision="FP32">
					<dim>576</dim>
					<dim>96</dim>
					<dim>1</dim>
					<dim>1</dim>
				</port>
			</input>
			<output>
				<port id="2" precision="FP32">
					<dim>-1</dim>
					<dim>576</dim>
					<dim>46</dim>
					<dim>62</dim>
				</port>
			</output>
		</layer>
		<layer id="252" name="Reshape_1337_compressed" type="Const" version="opset1">
			<data element_type="f16" shape="1, 576, 1, 1" offset="717788" size="1152" />
			<output>
				<port id="0" precision="FP16">
					<dim>1</dim>
					<dim>576</dim>
					<dim>1</dim>
					<dim>1</dim>
				</port>
			</output>
		</layer>
		<layer id="253" name="Reshape_1337" type="Convert" version="opset1">
			<data destination_type="f32" />
			<rt_info>
				<attribute name="decompression" version="0" />
			</rt_info>
			<input>
				<port id="0" precision="FP16">
					<dim>1</dim>
					<dim>576</dim>
					<dim>1</dim>
					<dim>1</dim>
				</port>
			</input>
			<output>
				<port id="1" precision="FP32">
					<dim>1</dim>
					<dim>576</dim>
					<dim>1</dim>
					<dim>1</dim>
				</port>
			</output>
		</layer>
		<layer id="254" name="/backbone/stage4/unit6/conv1/conv/Conv" type="Add" version="opset1">
			<data auto_broadcast="numpy" />
			<input>
				<port id="0" precision="FP32">
					<dim>-1</dim>
					<dim>576</dim>
					<dim>46</dim>
					<dim>62</dim>
				</port>
				<port id="1" precision="FP32">
					<dim>1</dim>
					<dim>576</dim>
					<dim>1</dim>
					<dim>1</dim>
				</port>
			</input>
			<output>
				<port id="2" precision="FP32" names="/backbone/stage4/unit6/conv1/conv/Conv_output_0">
					<dim>-1</dim>
					<dim>576</dim>
					<dim>46</dim>
					<dim>62</dim>
				</port>
			</output>
		</layer>
		<layer id="255" name="/backbone/stage4/unit6/conv1/activ/Clip" type="Clamp" version="opset1">
			<data min="0" max="6" />
			<input>
				<port id="0" precision="FP32">
					<dim>-1</dim>
					<dim>576</dim>
					<dim>46</dim>
					<dim>62</dim>
				</port>
			</input>
			<output>
				<port id="1" precision="FP32" names="/backbone/stage4/unit6/conv1/activ/Clip_output_0">
					<dim>-1</dim>
					<dim>576</dim>
					<dim>46</dim>
					<dim>62</dim>
				</port>
			</output>
		</layer>
		<layer id="256" name="Reshape_1352_compressed" type="Const" version="opset1">
			<data element_type="f16" shape="576, 1, 1, 3, 3" offset="718940" size="10368" />
			<output>
				<port id="0" precision="FP16">
					<dim>576</dim>
					<dim>1</dim>
					<dim>1</dim>
					<dim>3</dim>
					<dim>3</dim>
				</port>
			</output>
		</layer>
		<layer id="257" name="Reshape_1352" type="Convert" version="opset1">
			<data destination_type="f32" />
			<rt_info>
				<attribute name="decompression" version="0" />
			</rt_info>
			<input>
				<port id="0" precision="FP16">
					<dim>576</dim>
					<dim>1</dim>
					<dim>1</dim>
					<dim>3</dim>
					<dim>3</dim>
				</port>
			</input>
			<output>
				<port id="1" precision="FP32">
					<dim>576</dim>
					<dim>1</dim>
					<dim>1</dim>
					<dim>3</dim>
					<dim>3</dim>
				</port>
			</output>
		</layer>
		<layer id="258" name="/backbone/stage4/unit6/conv2/conv/Conv/WithoutBiases" type="GroupConvolution" version="opset1">
			<data strides="1, 1" pads_begin="1, 1" pads_end="1, 1" dilations="1, 1" auto_pad="explicit" />
			<input>
				<port id="0" precision="FP32">
					<dim>-1</dim>
					<dim>576</dim>
					<dim>46</dim>
					<dim>62</dim>
				</port>
				<port id="1" precision="FP32">
					<dim>576</dim>
					<dim>1</dim>
					<dim>1</dim>
					<dim>3</dim>
					<dim>3</dim>
				</port>
			</input>
			<output>
				<port id="2" precision="FP32">
					<dim>-1</dim>
					<dim>576</dim>
					<dim>46</dim>
					<dim>62</dim>
				</port>
			</output>
		</layer>
		<layer id="259" name="Reshape_1404_compressed" type="Const" version="opset1">
			<data element_type="f16" shape="1, 576, 1, 1" offset="729308" size="1152" />
			<output>
				<port id="0" precision="FP16">
					<dim>1</dim>
					<dim>576</dim>
					<dim>1</dim>
					<dim>1</dim>
				</port>
			</output>
		</layer>
		<layer id="260" name="Reshape_1404" type="Convert" version="opset1">
			<data destination_type="f32" />
			<rt_info>
				<attribute name="decompression" version="0" />
			</rt_info>
			<input>
				<port id="0" precision="FP16">
					<dim>1</dim>
					<dim>576</dim>
					<dim>1</dim>
					<dim>1</dim>
				</port>
			</input>
			<output>
				<port id="1" precision="FP32">
					<dim>1</dim>
					<dim>576</dim>
					<dim>1</dim>
					<dim>1</dim>
				</port>
			</output>
		</layer>
		<layer id="261" name="/backbone/stage4/unit6/conv2/conv/Conv" type="Add" version="opset1">
			<data auto_broadcast="numpy" />
			<input>
				<port id="0" precision="FP32">
					<dim>-1</dim>
					<dim>576</dim>
					<dim>46</dim>
					<dim>62</dim>
				</port>
				<port id="1" precision="FP32">
					<dim>1</dim>
					<dim>576</dim>
					<dim>1</dim>
					<dim>1</dim>
				</port>
			</input>
			<output>
				<port id="2" precision="FP32" names="/backbone/stage4/unit6/conv2/conv/Conv_output_0">
					<dim>-1</dim>
					<dim>576</dim>
					<dim>46</dim>
					<dim>62</dim>
				</port>
			</output>
		</layer>
		<layer id="262" name="/backbone/stage4/unit6/conv2/activ/Clip" type="Clamp" version="opset1">
			<data min="0" max="6" />
			<input>
				<port id="0" precision="FP32">
					<dim>-1</dim>
					<dim>576</dim>
					<dim>46</dim>
					<dim>62</dim>
				</port>
			</input>
			<output>
				<port id="1" precision="FP32" names="/backbone/stage4/unit6/conv2/activ/Clip_output_0">
					<dim>-1</dim>
					<dim>576</dim>
					<dim>46</dim>
					<dim>62</dim>
				</port>
			</output>
		</layer>
		<layer id="263" name="onnx::Conv_2398_compressed" type="Const" version="opset1">
			<data element_type="f16" shape="96, 576, 1, 1" offset="730460" size="110592" />
			<output>
				<port id="0" precision="FP16">
					<dim>96</dim>
					<dim>576</dim>
					<dim>1</dim>
					<dim>1</dim>
				</port>
			</output>
		</layer>
		<layer id="264" name="onnx::Conv_2398" type="Convert" version="opset1">
			<data destination_type="f32" />
			<rt_info>
				<attribute name="decompression" version="0" />
			</rt_info>
			<input>
				<port id="0" precision="FP16">
					<dim>96</dim>
					<dim>576</dim>
					<dim>1</dim>
					<dim>1</dim>
				</port>
			</input>
			<output>
				<port id="1" precision="FP32" names="onnx::Conv_2398">
					<dim>96</dim>
					<dim>576</dim>
					<dim>1</dim>
					<dim>1</dim>
				</port>
			</output>
		</layer>
		<layer id="265" name="/backbone/stage4/unit6/conv3/conv/Conv/WithoutBiases" type="Convolution" version="opset1">
			<data strides="1, 1" dilations="1, 1" pads_begin="0, 0" pads_end="0, 0" auto_pad="explicit" />
			<input>
				<port id="0" precision="FP32">
					<dim>-1</dim>
					<dim>576</dim>
					<dim>46</dim>
					<dim>62</dim>
				</port>
				<port id="1" precision="FP32">
					<dim>96</dim>
					<dim>576</dim>
					<dim>1</dim>
					<dim>1</dim>
				</port>
			</input>
			<output>
				<port id="2" precision="FP32">
					<dim>-1</dim>
					<dim>96</dim>
					<dim>46</dim>
					<dim>62</dim>
				</port>
			</output>
		</layer>
		<layer id="266" name="Reshape_1424_compressed" type="Const" version="opset1">
			<data element_type="f16" shape="1, 96, 1, 1" offset="841052" size="192" />
			<output>
				<port id="0" precision="FP16">
					<dim>1</dim>
					<dim>96</dim>
					<dim>1</dim>
					<dim>1</dim>
				</port>
			</output>
		</layer>
		<layer id="267" name="Reshape_1424" type="Convert" version="opset1">
			<data destination_type="f32" />
			<rt_info>
				<attribute name="decompression" version="0" />
			</rt_info>
			<input>
				<port id="0" precision="FP16">
					<dim>1</dim>
					<dim>96</dim>
					<dim>1</dim>
					<dim>1</dim>
				</port>
			</input>
			<output>
				<port id="1" precision="FP32">
					<dim>1</dim>
					<dim>96</dim>
					<dim>1</dim>
					<dim>1</dim>
				</port>
			</output>
		</layer>
		<layer id="268" name="/backbone/stage4/unit6/conv3/conv/Conv" type="Add" version="opset1">
			<data auto_broadcast="numpy" />
			<input>
				<port id="0" precision="FP32">
					<dim>-1</dim>
					<dim>96</dim>
					<dim>46</dim>
					<dim>62</dim>
				</port>
				<port id="1" precision="FP32">
					<dim>1</dim>
					<dim>96</dim>
					<dim>1</dim>
					<dim>1</dim>
				</port>
			</input>
			<output>
				<port id="2" precision="FP32" names="/backbone/stage4/unit6/conv3/conv/Conv_output_0">
					<dim>-1</dim>
					<dim>96</dim>
					<dim>46</dim>
					<dim>62</dim>
				</port>
			</output>
		</layer>
		<layer id="269" name="/backbone/stage4/unit6/Add" type="Add" version="opset1">
			<data auto_broadcast="numpy" />
			<input>
				<port id="0" precision="FP32">
					<dim>-1</dim>
					<dim>96</dim>
					<dim>46</dim>
					<dim>62</dim>
				</port>
				<port id="1" precision="FP32">
					<dim>-1</dim>
					<dim>96</dim>
					<dim>46</dim>
					<dim>62</dim>
				</port>
			</input>
			<output>
				<port id="2" precision="FP32" names="/backbone/stage4/unit6/Add_output_0">
					<dim>-1</dim>
					<dim>96</dim>
					<dim>46</dim>
					<dim>62</dim>
				</port>
			</output>
		</layer>
		<layer id="270" name="onnx::Conv_2401_compressed" type="Const" version="opset1">
			<data element_type="f16" shape="576, 96, 1, 1" offset="841244" size="110592" />
			<output>
				<port id="0" precision="FP16">
					<dim>576</dim>
					<dim>96</dim>
					<dim>1</dim>
					<dim>1</dim>
				</port>
			</output>
		</layer>
		<layer id="271" name="onnx::Conv_2401" type="Convert" version="opset1">
			<data destination_type="f32" />
			<rt_info>
				<attribute name="decompression" version="0" />
			</rt_info>
			<input>
				<port id="0" precision="FP16">
					<dim>576</dim>
					<dim>96</dim>
					<dim>1</dim>
					<dim>1</dim>
				</port>
			</input>
			<output>
				<port id="1" precision="FP32" names="onnx::Conv_2401">
					<dim>576</dim>
					<dim>96</dim>
					<dim>1</dim>
					<dim>1</dim>
				</port>
			</output>
		</layer>
		<layer id="272" name="/backbone/stage4/unit7/conv1/conv/Conv/WithoutBiases" type="Convolution" version="opset1">
			<data strides="1, 1" dilations="1, 1" pads_begin="0, 0" pads_end="0, 0" auto_pad="explicit" />
			<input>
				<port id="0" precision="FP32">
					<dim>-1</dim>
					<dim>96</dim>
					<dim>46</dim>
					<dim>62</dim>
				</port>
				<port id="1" precision="FP32">
					<dim>576</dim>
					<dim>96</dim>
					<dim>1</dim>
					<dim>1</dim>
				</port>
			</input>
			<output>
				<port id="2" precision="FP32">
					<dim>-1</dim>
					<dim>576</dim>
					<dim>46</dim>
					<dim>62</dim>
				</port>
			</output>
		</layer>
		<layer id="273" name="Reshape_1441_compressed" type="Const" version="opset1">
			<data element_type="f16" shape="1, 576, 1, 1" offset="951836" size="1152" />
			<output>
				<port id="0" precision="FP16">
					<dim>1</dim>
					<dim>576</dim>
					<dim>1</dim>
					<dim>1</dim>
				</port>
			</output>
		</layer>
		<layer id="274" name="Reshape_1441" type="Convert" version="opset1">
			<data destination_type="f32" />
			<rt_info>
				<attribute name="decompression" version="0" />
			</rt_info>
			<input>
				<port id="0" precision="FP16">
					<dim>1</dim>
					<dim>576</dim>
					<dim>1</dim>
					<dim>1</dim>
				</port>
			</input>
			<output>
				<port id="1" precision="FP32">
					<dim>1</dim>
					<dim>576</dim>
					<dim>1</dim>
					<dim>1</dim>
				</port>
			</output>
		</layer>
		<layer id="275" name="/backbone/stage4/unit7/conv1/conv/Conv" type="Add" version="opset1">
			<data auto_broadcast="numpy" />
			<input>
				<port id="0" precision="FP32">
					<dim>-1</dim>
					<dim>576</dim>
					<dim>46</dim>
					<dim>62</dim>
				</port>
				<port id="1" precision="FP32">
					<dim>1</dim>
					<dim>576</dim>
					<dim>1</dim>
					<dim>1</dim>
				</port>
			</input>
			<output>
				<port id="2" precision="FP32" names="/backbone/stage4/unit7/conv1/conv/Conv_output_0">
					<dim>-1</dim>
					<dim>576</dim>
					<dim>46</dim>
					<dim>62</dim>
				</port>
			</output>
		</layer>
		<layer id="276" name="/backbone/stage4/unit7/conv1/activ/Clip" type="Clamp" version="opset1">
			<data min="0" max="6" />
			<input>
				<port id="0" precision="FP32">
					<dim>-1</dim>
					<dim>576</dim>
					<dim>46</dim>
					<dim>62</dim>
				</port>
			</input>
			<output>
				<port id="1" precision="FP32" names="/backbone/stage4/unit7/conv1/activ/Clip_output_0">
					<dim>-1</dim>
					<dim>576</dim>
					<dim>46</dim>
					<dim>62</dim>
				</port>
			</output>
		</layer>
		<layer id="277" name="Reshape_1456_compressed" type="Const" version="opset1">
			<data element_type="f16" shape="576, 1, 1, 3, 3" offset="952988" size="10368" />
			<output>
				<port id="0" precision="FP16">
					<dim>576</dim>
					<dim>1</dim>
					<dim>1</dim>
					<dim>3</dim>
					<dim>3</dim>
				</port>
			</output>
		</layer>
		<layer id="278" name="Reshape_1456" type="Convert" version="opset1">
			<data destination_type="f32" />
			<rt_info>
				<attribute name="decompression" version="0" />
			</rt_info>
			<input>
				<port id="0" precision="FP16">
					<dim>576</dim>
					<dim>1</dim>
					<dim>1</dim>
					<dim>3</dim>
					<dim>3</dim>
				</port>
			</input>
			<output>
				<port id="1" precision="FP32">
					<dim>576</dim>
					<dim>1</dim>
					<dim>1</dim>
					<dim>3</dim>
					<dim>3</dim>
				</port>
			</output>
		</layer>
		<layer id="279" name="/backbone/stage4/unit7/conv2/conv/Conv/WithoutBiases" type="GroupConvolution" version="opset1">
			<data strides="1, 1" pads_begin="1, 1" pads_end="1, 1" dilations="1, 1" auto_pad="explicit" />
			<input>
				<port id="0" precision="FP32">
					<dim>-1</dim>
					<dim>576</dim>
					<dim>46</dim>
					<dim>62</dim>
				</port>
				<port id="1" precision="FP32">
					<dim>576</dim>
					<dim>1</dim>
					<dim>1</dim>
					<dim>3</dim>
					<dim>3</dim>
				</port>
			</input>
			<output>
				<port id="2" precision="FP32">
					<dim>-1</dim>
					<dim>576</dim>
					<dim>46</dim>
					<dim>62</dim>
				</port>
			</output>
		</layer>
		<layer id="280" name="Reshape_1508_compressed" type="Const" version="opset1">
			<data element_type="f16" shape="1, 576, 1, 1" offset="963356" size="1152" />
			<output>
				<port id="0" precision="FP16">
					<dim>1</dim>
					<dim>576</dim>
					<dim>1</dim>
					<dim>1</dim>
				</port>
			</output>
		</layer>
		<layer id="281" name="Reshape_1508" type="Convert" version="opset1">
			<data destination_type="f32" />
			<rt_info>
				<attribute name="decompression" version="0" />
			</rt_info>
			<input>
				<port id="0" precision="FP16">
					<dim>1</dim>
					<dim>576</dim>
					<dim>1</dim>
					<dim>1</dim>
				</port>
			</input>
			<output>
				<port id="1" precision="FP32">
					<dim>1</dim>
					<dim>576</dim>
					<dim>1</dim>
					<dim>1</dim>
				</port>
			</output>
		</layer>
		<layer id="282" name="/backbone/stage4/unit7/conv2/conv/Conv" type="Add" version="opset1">
			<data auto_broadcast="numpy" />
			<input>
				<port id="0" precision="FP32">
					<dim>-1</dim>
					<dim>576</dim>
					<dim>46</dim>
					<dim>62</dim>
				</port>
				<port id="1" precision="FP32">
					<dim>1</dim>
					<dim>576</dim>
					<dim>1</dim>
					<dim>1</dim>
				</port>
			</input>
			<output>
				<port id="2" precision="FP32" names="/backbone/stage4/unit7/conv2/conv/Conv_output_0">
					<dim>-1</dim>
					<dim>576</dim>
					<dim>46</dim>
					<dim>62</dim>
				</port>
			</output>
		</layer>
		<layer id="283" name="/backbone/stage4/unit7/conv2/activ/Clip" type="Clamp" version="opset1">
			<data min="0" max="6" />
			<input>
				<port id="0" precision="FP32">
					<dim>-1</dim>
					<dim>576</dim>
					<dim>46</dim>
					<dim>62</dim>
				</port>
			</input>
			<output>
				<port id="1" precision="FP32" names="/backbone/stage4/unit7/conv2/activ/Clip_output_0">
					<dim>-1</dim>
					<dim>576</dim>
					<dim>46</dim>
					<dim>62</dim>
				</port>
			</output>
		</layer>
		<layer id="284" name="onnx::Conv_2407_compressed" type="Const" version="opset1">
			<data element_type="f16" shape="96, 576, 1, 1" offset="964508" size="110592" />
			<output>
				<port id="0" precision="FP16">
					<dim>96</dim>
					<dim>576</dim>
					<dim>1</dim>
					<dim>1</dim>
				</port>
			</output>
		</layer>
		<layer id="285" name="onnx::Conv_2407" type="Convert" version="opset1">
			<data destination_type="f32" />
			<rt_info>
				<attribute name="decompression" version="0" />
			</rt_info>
			<input>
				<port id="0" precision="FP16">
					<dim>96</dim>
					<dim>576</dim>
					<dim>1</dim>
					<dim>1</dim>
				</port>
			</input>
			<output>
				<port id="1" precision="FP32" names="onnx::Conv_2407">
					<dim>96</dim>
					<dim>576</dim>
					<dim>1</dim>
					<dim>1</dim>
				</port>
			</output>
		</layer>
		<layer id="286" name="/backbone/stage4/unit7/conv3/conv/Conv/WithoutBiases" type="Convolution" version="opset1">
			<data strides="1, 1" dilations="1, 1" pads_begin="0, 0" pads_end="0, 0" auto_pad="explicit" />
			<input>
				<port id="0" precision="FP32">
					<dim>-1</dim>
					<dim>576</dim>
					<dim>46</dim>
					<dim>62</dim>
				</port>
				<port id="1" precision="FP32">
					<dim>96</dim>
					<dim>576</dim>
					<dim>1</dim>
					<dim>1</dim>
				</port>
			</input>
			<output>
				<port id="2" precision="FP32">
					<dim>-1</dim>
					<dim>96</dim>
					<dim>46</dim>
					<dim>62</dim>
				</port>
			</output>
		</layer>
		<layer id="287" name="Reshape_1528_compressed" type="Const" version="opset1">
			<data element_type="f16" shape="1, 96, 1, 1" offset="1075100" size="192" />
			<output>
				<port id="0" precision="FP16">
					<dim>1</dim>
					<dim>96</dim>
					<dim>1</dim>
					<dim>1</dim>
				</port>
			</output>
		</layer>
		<layer id="288" name="Reshape_1528" type="Convert" version="opset1">
			<data destination_type="f32" />
			<rt_info>
				<attribute name="decompression" version="0" />
			</rt_info>
			<input>
				<port id="0" precision="FP16">
					<dim>1</dim>
					<dim>96</dim>
					<dim>1</dim>
					<dim>1</dim>
				</port>
			</input>
			<output>
				<port id="1" precision="FP32">
					<dim>1</dim>
					<dim>96</dim>
					<dim>1</dim>
					<dim>1</dim>
				</port>
			</output>
		</layer>
		<layer id="289" name="/backbone/stage4/unit7/conv3/conv/Conv" type="Add" version="opset1">
			<data auto_broadcast="numpy" />
			<input>
				<port id="0" precision="FP32">
					<dim>-1</dim>
					<dim>96</dim>
					<dim>46</dim>
					<dim>62</dim>
				</port>
				<port id="1" precision="FP32">
					<dim>1</dim>
					<dim>96</dim>
					<dim>1</dim>
					<dim>1</dim>
				</port>
			</input>
			<output>
				<port id="2" precision="FP32" names="/backbone/stage4/unit7/conv3/conv/Conv_output_0">
					<dim>-1</dim>
					<dim>96</dim>
					<dim>46</dim>
					<dim>62</dim>
				</port>
			</output>
		</layer>
		<layer id="290" name="/backbone/stage4/unit7/Add" type="Add" version="opset1">
			<data auto_broadcast="numpy" />
			<input>
				<port id="0" precision="FP32">
					<dim>-1</dim>
					<dim>96</dim>
					<dim>46</dim>
					<dim>62</dim>
				</port>
				<port id="1" precision="FP32">
					<dim>-1</dim>
					<dim>96</dim>
					<dim>46</dim>
					<dim>62</dim>
				</port>
			</input>
			<output>
				<port id="2" precision="FP32" names="/backbone/stage4/unit7/Add_output_0">
					<dim>-1</dim>
					<dim>96</dim>
					<dim>46</dim>
					<dim>62</dim>
				</port>
			</output>
		</layer>
		<layer id="291" name="neck.lateral_convs.1.conv.weight_compressed" type="Const" version="opset1">
			<data element_type="f16" shape="64, 96, 1, 1" offset="1075292" size="12288" />
			<output>
				<port id="0" precision="FP16">
					<dim>64</dim>
					<dim>96</dim>
					<dim>1</dim>
					<dim>1</dim>
				</port>
			</output>
		</layer>
		<layer id="292" name="neck.lateral_convs.1.conv.weight" type="Convert" version="opset1">
			<data destination_type="f32" />
			<rt_info>
				<attribute name="decompression" version="0" />
			</rt_info>
			<input>
				<port id="0" precision="FP16">
					<dim>64</dim>
					<dim>96</dim>
					<dim>1</dim>
					<dim>1</dim>
				</port>
			</input>
			<output>
				<port id="1" precision="FP32" names="neck.lateral_convs.1.conv.weight">
					<dim>64</dim>
					<dim>96</dim>
					<dim>1</dim>
					<dim>1</dim>
				</port>
			</output>
		</layer>
		<layer id="293" name="/neck/lateral_convs.1/conv/Conv/WithoutBiases" type="Convolution" version="opset1">
			<data strides="1, 1" dilations="1, 1" pads_begin="0, 0" pads_end="0, 0" auto_pad="explicit" />
			<input>
				<port id="0" precision="FP32">
					<dim>-1</dim>
					<dim>96</dim>
					<dim>46</dim>
					<dim>62</dim>
				</port>
				<port id="1" precision="FP32">
					<dim>64</dim>
					<dim>96</dim>
					<dim>1</dim>
					<dim>1</dim>
				</port>
			</input>
			<output>
				<port id="2" precision="FP32">
					<dim>-1</dim>
					<dim>64</dim>
					<dim>46</dim>
					<dim>62</dim>
				</port>
			</output>
		</layer>
		<layer id="294" name="Reshape_1975_compressed" type="Const" version="opset1">
			<data element_type="f16" shape="1, 64, 1, 1" offset="1087580" size="128" />
			<output>
				<port id="0" precision="FP16">
					<dim>1</dim>
					<dim>64</dim>
					<dim>1</dim>
					<dim>1</dim>
				</port>
			</output>
		</layer>
		<layer id="295" name="Reshape_1975" type="Convert" version="opset1">
			<data destination_type="f32" />
			<rt_info>
				<attribute name="decompression" version="0" />
			</rt_info>
			<input>
				<port id="0" precision="FP16">
					<dim>1</dim>
					<dim>64</dim>
					<dim>1</dim>
					<dim>1</dim>
				</port>
			</input>
			<output>
				<port id="1" precision="FP32">
					<dim>1</dim>
					<dim>64</dim>
					<dim>1</dim>
					<dim>1</dim>
				</port>
			</output>
		</layer>
		<layer id="296" name="/neck/lateral_convs.1/conv/Conv" type="Add" version="opset1">
			<data auto_broadcast="numpy" />
			<input>
				<port id="0" precision="FP32">
					<dim>-1</dim>
					<dim>64</dim>
					<dim>46</dim>
					<dim>62</dim>
				</port>
				<port id="1" precision="FP32">
					<dim>1</dim>
					<dim>64</dim>
					<dim>1</dim>
					<dim>1</dim>
				</port>
			</input>
			<output>
				<port id="2" precision="FP32" names="/neck/lateral_convs.1/conv/Conv_output_0">
					<dim>-1</dim>
					<dim>64</dim>
					<dim>46</dim>
					<dim>62</dim>
				</port>
			</output>
		</layer>
		<layer id="297" name="onnx::Conv_2410_compressed" type="Const" version="opset1">
			<data element_type="f16" shape="576, 96, 1, 1" offset="1087708" size="110592" />
			<output>
				<port id="0" precision="FP16">
					<dim>576</dim>
					<dim>96</dim>
					<dim>1</dim>
					<dim>1</dim>
				</port>
			</output>
		</layer>
		<layer id="298" name="onnx::Conv_2410" type="Convert" version="opset1">
			<data destination_type="f32" />
			<rt_info>
				<attribute name="decompression" version="0" />
			</rt_info>
			<input>
				<port id="0" precision="FP16">
					<dim>576</dim>
					<dim>96</dim>
					<dim>1</dim>
					<dim>1</dim>
				</port>
			</input>
			<output>
				<port id="1" precision="FP32" names="onnx::Conv_2410">
					<dim>576</dim>
					<dim>96</dim>
					<dim>1</dim>
					<dim>1</dim>
				</port>
			</output>
		</layer>
		<layer id="299" name="/backbone/stage5/unit1/conv1/conv/Conv/WithoutBiases" type="Convolution" version="opset1">
			<data strides="1, 1" dilations="1, 1" pads_begin="0, 0" pads_end="0, 0" auto_pad="explicit" />
			<input>
				<port id="0" precision="FP32">
					<dim>-1</dim>
					<dim>96</dim>
					<dim>46</dim>
					<dim>62</dim>
				</port>
				<port id="1" precision="FP32">
					<dim>576</dim>
					<dim>96</dim>
					<dim>1</dim>
					<dim>1</dim>
				</port>
			</input>
			<output>
				<port id="2" precision="FP32">
					<dim>-1</dim>
					<dim>576</dim>
					<dim>46</dim>
					<dim>62</dim>
				</port>
			</output>
		</layer>
		<layer id="300" name="Reshape_1545_compressed" type="Const" version="opset1">
			<data element_type="f16" shape="1, 576, 1, 1" offset="1198300" size="1152" />
			<output>
				<port id="0" precision="FP16">
					<dim>1</dim>
					<dim>576</dim>
					<dim>1</dim>
					<dim>1</dim>
				</port>
			</output>
		</layer>
		<layer id="301" name="Reshape_1545" type="Convert" version="opset1">
			<data destination_type="f32" />
			<rt_info>
				<attribute name="decompression" version="0" />
			</rt_info>
			<input>
				<port id="0" precision="FP16">
					<dim>1</dim>
					<dim>576</dim>
					<dim>1</dim>
					<dim>1</dim>
				</port>
			</input>
			<output>
				<port id="1" precision="FP32">
					<dim>1</dim>
					<dim>576</dim>
					<dim>1</dim>
					<dim>1</dim>
				</port>
			</output>
		</layer>
		<layer id="302" name="/backbone/stage5/unit1/conv1/conv/Conv" type="Add" version="opset1">
			<data auto_broadcast="numpy" />
			<input>
				<port id="0" precision="FP32">
					<dim>-1</dim>
					<dim>576</dim>
					<dim>46</dim>
					<dim>62</dim>
				</port>
				<port id="1" precision="FP32">
					<dim>1</dim>
					<dim>576</dim>
					<dim>1</dim>
					<dim>1</dim>
				</port>
			</input>
			<output>
				<port id="2" precision="FP32" names="/backbone/stage5/unit1/conv1/conv/Conv_output_0">
					<dim>-1</dim>
					<dim>576</dim>
					<dim>46</dim>
					<dim>62</dim>
				</port>
			</output>
		</layer>
		<layer id="303" name="/backbone/stage5/unit1/conv1/activ/Clip" type="Clamp" version="opset1">
			<data min="0" max="6" />
			<input>
				<port id="0" precision="FP32">
					<dim>-1</dim>
					<dim>576</dim>
					<dim>46</dim>
					<dim>62</dim>
				</port>
			</input>
			<output>
				<port id="1" precision="FP32" names="/backbone/stage5/unit1/conv1/activ/Clip_output_0">
					<dim>-1</dim>
					<dim>576</dim>
					<dim>46</dim>
					<dim>62</dim>
				</port>
			</output>
		</layer>
		<layer id="304" name="Reshape_1560_compressed" type="Const" version="opset1">
			<data element_type="f16" shape="576, 1, 1, 3, 3" offset="1199452" size="10368" />
			<output>
				<port id="0" precision="FP16">
					<dim>576</dim>
					<dim>1</dim>
					<dim>1</dim>
					<dim>3</dim>
					<dim>3</dim>
				</port>
			</output>
		</layer>
		<layer id="305" name="Reshape_1560" type="Convert" version="opset1">
			<data destination_type="f32" />
			<rt_info>
				<attribute name="decompression" version="0" />
			</rt_info>
			<input>
				<port id="0" precision="FP16">
					<dim>576</dim>
					<dim>1</dim>
					<dim>1</dim>
					<dim>3</dim>
					<dim>3</dim>
				</port>
			</input>
			<output>
				<port id="1" precision="FP32">
					<dim>576</dim>
					<dim>1</dim>
					<dim>1</dim>
					<dim>3</dim>
					<dim>3</dim>
				</port>
			</output>
		</layer>
		<layer id="306" name="/backbone/stage5/unit1/conv2/conv/Conv/WithoutBiases" type="GroupConvolution" version="opset1">
			<data strides="2, 2" pads_begin="1, 1" pads_end="1, 1" dilations="1, 1" auto_pad="explicit" />
			<input>
				<port id="0" precision="FP32">
					<dim>-1</dim>
					<dim>576</dim>
					<dim>46</dim>
					<dim>62</dim>
				</port>
				<port id="1" precision="FP32">
					<dim>576</dim>
					<dim>1</dim>
					<dim>1</dim>
					<dim>3</dim>
					<dim>3</dim>
				</port>
			</input>
			<output>
				<port id="2" precision="FP32">
					<dim>-1</dim>
					<dim>576</dim>
					<dim>23</dim>
					<dim>31</dim>
				</port>
			</output>
		</layer>
		<layer id="307" name="Reshape_1612_compressed" type="Const" version="opset1">
			<data element_type="f16" shape="1, 576, 1, 1" offset="1209820" size="1152" />
			<output>
				<port id="0" precision="FP16">
					<dim>1</dim>
					<dim>576</dim>
					<dim>1</dim>
					<dim>1</dim>
				</port>
			</output>
		</layer>
		<layer id="308" name="Reshape_1612" type="Convert" version="opset1">
			<data destination_type="f32" />
			<rt_info>
				<attribute name="decompression" version="0" />
			</rt_info>
			<input>
				<port id="0" precision="FP16">
					<dim>1</dim>
					<dim>576</dim>
					<dim>1</dim>
					<dim>1</dim>
				</port>
			</input>
			<output>
				<port id="1" precision="FP32">
					<dim>1</dim>
					<dim>576</dim>
					<dim>1</dim>
					<dim>1</dim>
				</port>
			</output>
		</layer>
		<layer id="309" name="/backbone/stage5/unit1/conv2/conv/Conv" type="Add" version="opset1">
			<data auto_broadcast="numpy" />
			<input>
				<port id="0" precision="FP32">
					<dim>-1</dim>
					<dim>576</dim>
					<dim>23</dim>
					<dim>31</dim>
				</port>
				<port id="1" precision="FP32">
					<dim>1</dim>
					<dim>576</dim>
					<dim>1</dim>
					<dim>1</dim>
				</port>
			</input>
			<output>
…
		<edge from-layer="1827" from-port="2" to-layer="1828" to-port="1" />
		<edge from-layer="1828" from-port="2" to-layer="1839" to-port="0" />
		<edge from-layer="1828" from-port="2" to-layer="1867" to-port="0" />
		<edge from-layer="1829" from-port="0" to-layer="1832" to-port="1" />
		<edge from-layer="1830" from-port="0" to-layer="1832" to-port="2" />
		<edge from-layer="1831" from-port="0" to-layer="1832" to-port="3" />
		<edge from-layer="1832" from-port="4" to-layer="1833" to-port="0" />
		<edge from-layer="1833" from-port="1" to-layer="1834" to-port="0" />
		<edge from-layer="1834" from-port="1" to-layer="1835" to-port="1" />
		<edge from-layer="1835" from-port="2" to-layer="1838" to-port="0" />
		<edge from-layer="1836" from-port="0" to-layer="1837" to-port="0" />
		<edge from-layer="1837" from-port="1" to-layer="1838" to-port="1" />
		<edge from-layer="1838" from-port="2" to-layer="1867" to-port="1" />
		<edge from-layer="1838" from-port="2" to-layer="1839" to-port="1" />
		<edge from-layer="1839" from-port="2" to-layer="1858" to-port="0" />
		<edge from-layer="1839" from-port="2" to-layer="1842" to-port="0" />
		<edge from-layer="1840" from-port="0" to-layer="1860" to-port="1" />
		<edge from-layer="1840" from-port="0" to-layer="1869" to-port="1" />
		<edge from-layer="1840" from-port="0" to-layer="1842" to-port="1" />
		<edge from-layer="1840" from-port="0" to-layer="2232" to-port="1" />
		<edge from-layer="1841" from-port="0" to-layer="1842" to-port="2" />
		<edge from-layer="1842" from-port="3" to-layer="1852" to-port="0" />
		<edge from-layer="1843" from-port="1" to-layer="1847" to-port="0" />
		<edge from-layer="1844" from-port="0" to-layer="1847" to-port="1" />
		<edge from-layer="1845" from-port="0" to-layer="1847" to-port="2" />
		<edge from-layer="1846" from-port="0" to-layer="1847" to-port="3" />
		<edge from-layer="1847" from-port="4" to-layer="1860" to-port="0" />
		<edge from-layer="1847" from-port="4" to-layer="1850" to-port="0" />
		<edge from-layer="1848" from-port="0" to-layer="1876" to-port="1" />
		<edge from-layer="1848" from-port="0" to-layer="2240" to-port="1" />
		<edge from-layer="1848" from-port="0" to-layer="1858" to-port="1" />
		<edge from-layer="1848" from-port="0" to-layer="1850" to-port="1" />
		<edge from-layer="1849" from-port="0" to-layer="1850" to-port="2" />
		<edge from-layer="1850" from-port="3" to-layer="1851" to-port="0" />
		<edge from-layer="1851" from-port="1" to-layer="1870" to-port="1" />
		<edge from-layer="1851" from-port="1" to-layer="1872" to-port="1" />
		<edge from-layer="1851" from-port="1" to-layer="1852" to-port="1" />
		<edge from-layer="1851" from-port="1" to-layer="1854" to-port="1" />
		<edge from-layer="1852" from-port="2" to-layer="1853" to-port="0" />
		<edge from-layer="1853" from-port="1" to-layer="1854" to-port="0" />
		<edge from-layer="1854" from-port="2" to-layer="1856" to-port="0" />
		<edge from-layer="1855" from-port="0" to-layer="1856" to-port="1" />
		<edge from-layer="1856" from-port="2" to-layer="1882" to-port="0" />
		<edge from-layer="1857" from-port="0" to-layer="1858" to-port="2" />
		<edge from-layer="1858" from-port="3" to-layer="1862" to-port="0" />
		<edge from-layer="1859" from-port="0" to-layer="1860" to-port="2" />
		<edge from-layer="1860" from-port="3" to-layer="1861" to-port="0" />
		<edge from-layer="1861" from-port="1" to-layer="1877" to-port="1" />
		<edge from-layer="1861" from-port="1" to-layer="1864" to-port="1" />
		<edge from-layer="1861" from-port="1" to-layer="1862" to-port="1" />
		<edge from-layer="1861" from-port="1" to-layer="1879" to-port="1" />
		<edge from-layer="1862" from-port="2" to-layer="1863" to-port="0" />
		<edge from-layer="1863" from-port="1" to-layer="1864" to-port="0" />
		<edge from-layer="1864" from-port="2" to-layer="1866" to-port="0" />
		<edge from-layer="1865" from-port="0" to-layer="1866" to-port="1" />
		<edge from-layer="1866" from-port="2" to-layer="1882" to-port="1" />
		<edge from-layer="1867" from-port="2" to-layer="1869" to-port="0" />
		<edge from-layer="1867" from-port="2" to-layer="1876" to-port="0" />
		<edge from-layer="1868" from-port="0" to-layer="1869" to-port="2" />
		<edge from-layer="1869" from-port="3" to-layer="1870" to-port="0" />
		<edge from-layer="1870" from-port="2" to-layer="1871" to-port="0" />
		<edge from-layer="1871" from-port="1" to-layer="1872" to-port="0" />
		<edge from-layer="1872" from-port="2" to-layer="1874" to-port="0" />
		<edge from-layer="1873" from-port="0" to-layer="1874" to-port="1" />
		<edge from-layer="1874" from-port="2" to-layer="1882" to-port="2" />
		<edge from-layer="1875" from-port="0" to-layer="1876" to-port="2" />
		<edge from-layer="1876" from-port="3" to-layer="1877" to-port="0" />
		<edge from-layer="1877" from-port="2" to-layer="1878" to-port="0" />
		<edge from-layer="1878" from-port="1" to-layer="1879" to-port="0" />
		<edge from-layer="1879" from-port="2" to-layer="1881" to-port="0" />
		<edge from-layer="1880" from-port="0" to-layer="1881" to-port="1" />
		<edge from-layer="1881" from-port="2" to-layer="1882" to-port="3" />
		<edge from-layer="1882" from-port="4" to-layer="1884" to-port="0" />
		<edge from-layer="1883" from-port="1" to-layer="1884" to-port="1" />
		<edge from-layer="1884" from-port="2" to-layer="1894" to-port="0" />
		<edge from-layer="1884" from-port="2" to-layer="1885" to-port="0" />
		<edge from-layer="1885" from-port="1" to-layer="2192" to-port="0" />
		<edge from-layer="1885" from-port="1" to-layer="2184" to-port="0" />
		<edge from-layer="1885" from-port="1" to-layer="1889" to-port="0" />
		<edge from-layer="1886" from-port="0" to-layer="1889" to-port="1" />
		<edge from-layer="1887" from-port="0" to-layer="1889" to-port="2" />
		<edge from-layer="1888" from-port="0" to-layer="1889" to-port="3" />
		<edge from-layer="1889" from-port="4" to-layer="1891" to-port="0" />
		<edge from-layer="1890" from-port="0" to-layer="1891" to-port="1" />
		<edge from-layer="1891" from-port="2" to-layer="1893" to-port="0" />
		<edge from-layer="1892" from-port="0" to-layer="1893" to-port="1" />
		<edge from-layer="1893" from-port="2" to-layer="1894" to-port="1" />
		<edge from-layer="1894" from-port="2" to-layer="2188" to-port="0" />
		<edge from-layer="1895" from-port="1" to-layer="1915" to-port="0" />
		<edge from-layer="1895" from-port="1" to-layer="1899" to-port="0" />
		<edge from-layer="1895" from-port="1" to-layer="1907" to-port="0" />
		<edge from-layer="1896" from-port="0" to-layer="1899" to-port="1" />
		<edge from-layer="1897" from-port="0" to-layer="1899" to-port="2" />
		<edge from-layer="1898" from-port="0" to-layer="1899" to-port="3" />
		<edge from-layer="1899" from-port="4" to-layer="1901" to-port="0" />
		<edge from-layer="1900" from-port="0" to-layer="1901" to-port="1" />
		<edge from-layer="1901" from-port="2" to-layer="1903" to-port="0" />
		<edge from-layer="1902" from-port="0" to-layer="1903" to-port="1" />
		<edge from-layer="1903" from-port="2" to-layer="1904" to-port="1" />
		<edge from-layer="1904" from-port="2" to-layer="1911" to-port="0" />
		<edge from-layer="1905" from-port="0" to-layer="1907" to-port="1" />
		<edge from-layer="1906" from-port="0" to-layer="1907" to-port="2" />
		<edge from-layer="1907" from-port="3" to-layer="1908" to-port="1" />
		<edge from-layer="1908" from-port="2" to-layer="1909" to-port="1" />
		<edge from-layer="1909" from-port="2" to-layer="1918" to-port="0" />
		<edge from-layer="1909" from-port="2" to-layer="1911" to-port="1" />
		<edge from-layer="1910" from-port="0" to-layer="1911" to-port="2" />
		<edge from-layer="1911" from-port="3" to-layer="1917" to-port="0" />
		<edge from-layer="1912" from-port="0" to-layer="1916" to-port="0" />
		<edge from-layer="1913" from-port="0" to-layer="1915" to-port="1" />
		<edge from-layer="1914" from-port="0" to-layer="1915" to-port="2" />
		<edge from-layer="1915" from-port="3" to-layer="1919" to-port="1" />
		<edge from-layer="1915" from-port="3" to-layer="1916" to-port="1" />
		<edge from-layer="1916" from-port="2" to-layer="1917" to-port="1" />
		<edge from-layer="1917" from-port="2" to-layer="1920" to-port="0" />
		<edge from-layer="1918" from-port="1" to-layer="1919" to-port="0" />
		<edge from-layer="1919" from-port="2" to-layer="1920" to-port="1" />
		<edge from-layer="1920" from-port="2" to-layer="2025" to-port="0" />
		<edge from-layer="1921" from-port="1" to-layer="1925" to-port="0" />
		<edge from-layer="1921" from-port="1" to-layer="1941" to-port="0" />
		<edge from-layer="1921" from-port="1" to-layer="1933" to-port="0" />
		<edge from-layer="1922" from-port="0" to-layer="1925" to-port="1" />
		<edge from-layer="1923" from-port="0" to-layer="1925" to-port="2" />
		<edge from-layer="1924" from-port="0" to-layer="1925" to-port="3" />
		<edge from-layer="1925" from-port="4" to-layer="1927" to-port="0" />
		<edge from-layer="1926" from-port="0" to-layer="1927" to-port="1" />
		<edge from-layer="1927" from-port="2" to-layer="1929" to-port="0" />
		<edge from-layer="1928" from-port="0" to-layer="1929" to-port="1" />
		<edge from-layer="1929" from-port="2" to-layer="1930" to-port="1" />
		<edge from-layer="1930" from-port="2" to-layer="1937" to-port="0" />
		<edge from-layer="1931" from-port="0" to-layer="1933" to-port="1" />
		<edge from-layer="1932" from-port="0" to-layer="1933" to-port="2" />
		<edge from-layer="1933" from-port="3" to-layer="1934" to-port="1" />
		<edge from-layer="1934" from-port="2" to-layer="1935" to-port="1" />
		<edge from-layer="1935" from-port="2" to-layer="1937" to-port="1" />
		<edge from-layer="1935" from-port="2" to-layer="1944" to-port="0" />
		<edge from-layer="1936" from-port="0" to-layer="1937" to-port="2" />
		<edge from-layer="1937" from-port="3" to-layer="1943" to-port="0" />
		<edge from-layer="1938" from-port="0" to-layer="1942" to-port="0" />
		<edge from-layer="1939" from-port="0" to-layer="1941" to-port="1" />
		<edge from-layer="1940" from-port="0" to-layer="1941" to-port="2" />
		<edge from-layer="1941" from-port="3" to-layer="1942" to-port="1" />
		<edge from-layer="1941" from-port="3" to-layer="1945" to-port="1" />
		<edge from-layer="1942" from-port="2" to-layer="1943" to-port="1" />
		<edge from-layer="1943" from-port="2" to-layer="1946" to-port="0" />
		<edge from-layer="1944" from-port="1" to-layer="1945" to-port="0" />
		<edge from-layer="1945" from-port="2" to-layer="1946" to-port="1" />
		<edge from-layer="1946" from-port="2" to-layer="2025" to-port="1" />
		<edge from-layer="1947" from-port="1" to-layer="1951" to-port="0" />
		<edge from-layer="1947" from-port="1" to-layer="1959" to-port="0" />
		<edge from-layer="1947" from-port="1" to-layer="1967" to-port="0" />
		<edge from-layer="1948" from-port="0" to-layer="1951" to-port="1" />
		<edge from-layer="1949" from-port="0" to-layer="1951" to-port="2" />
		<edge from-layer="1950" from-port="0" to-layer="1951" to-port="3" />
		<edge from-layer="1951" from-port="4" to-layer="1953" to-port="0" />
		<edge from-layer="1952" from-port="0" to-layer="1953" to-port="1" />
		<edge from-layer="1953" from-port="2" to-layer="1955" to-port="0" />
		<edge from-layer="1954" from-port="0" to-layer="1955" to-port="1" />
		<edge from-layer="1955" from-port="2" to-layer="1956" to-port="1" />
		<edge from-layer="1956" from-port="2" to-layer="1963" to-port="0" />
		<edge from-layer="1957" from-port="0" to-layer="1959" to-port="1" />
		<edge from-layer="1958" from-port="0" to-layer="1959" to-port="2" />
		<edge from-layer="1959" from-port="3" to-layer="1960" to-port="1" />
		<edge from-layer="1960" from-port="2" to-layer="1961" to-port="1" />
		<edge from-layer="1961" from-port="2" to-layer="1963" to-port="1" />
		<edge from-layer="1961" from-port="2" to-layer="1970" to-port="0" />
		<edge from-layer="1962" from-port="0" to-layer="1963" to-port="2" />
		<edge from-layer="1963" from-port="3" to-layer="1969" to-port="0" />
		<edge from-layer="1964" from-port="0" to-layer="1968" to-port="0" />
		<edge from-layer="1965" from-port="0" to-layer="1967" to-port="1" />
		<edge from-layer="1966" from-port="0" to-layer="1967" to-port="2" />
		<edge from-layer="1967" from-port="3" to-layer="1971" to-port="1" />
		<edge from-layer="1967" from-port="3" to-layer="1968" to-port="1" />
		<edge from-layer="1968" from-port="2" to-layer="1969" to-port="1" />
		<edge from-layer="1969" from-port="2" to-layer="1972" to-port="0" />
		<edge from-layer="1970" from-port="1" to-layer="1971" to-port="0" />
		<edge from-layer="1971" from-port="2" to-layer="1972" to-port="1" />
		<edge from-layer="1972" from-port="2" to-layer="2025" to-port="2" />
		<edge from-layer="1973" from-port="1" to-layer="1993" to-port="0" />
		<edge from-layer="1973" from-port="1" to-layer="1977" to-port="0" />
		<edge from-layer="1973" from-port="1" to-layer="1985" to-port="0" />
		<edge from-layer="1974" from-port="0" to-layer="1977" to-port="1" />
		<edge from-layer="1975" from-port="0" to-layer="1977" to-port="2" />
		<edge from-layer="1976" from-port="0" to-layer="1977" to-port="3" />
		<edge from-layer="1977" from-port="4" to-layer="1979" to-port="0" />
		<edge from-layer="1978" from-port="0" to-layer="1979" to-port="1" />
		<edge from-layer="1979" from-port="2" to-layer="1981" to-port="0" />
		<edge from-layer="1980" from-port="0" to-layer="1981" to-port="1" />
		<edge from-layer="1981" from-port="2" to-layer="1982" to-port="1" />
		<edge from-layer="1982" from-port="2" to-layer="1989" to-port="0" />
		<edge from-layer="1983" from-port="0" to-layer="1985" to-port="1" />
		<edge from-layer="1984" from-port="0" to-layer="1985" to-port="2" />
		<edge from-layer="1985" from-port="3" to-layer="1986" to-port="1" />
		<edge from-layer="1986" from-port="2" to-layer="1987" to-port="1" />
		<edge from-layer="1987" from-port="2" to-layer="1989" to-port="1" />
		<edge from-layer="1987" from-port="2" to-layer="1996" to-port="0" />
		<edge from-layer="1988" from-port="0" to-layer="1989" to-port="2" />
		<edge from-layer="1989" from-port="3" to-layer="1995" to-port="0" />
		<edge from-layer="1990" from-port="0" to-layer="1994" to-port="0" />
		<edge from-layer="1991" from-port="0" to-layer="1993" to-port="1" />
		<edge from-layer="1992" from-port="0" to-layer="1993" to-port="2" />
		<edge from-layer="1993" from-port="3" to-layer="1994" to-port="1" />
		<edge from-layer="1993" from-port="3" to-layer="1997" to-port="1" />
		<edge from-layer="1994" from-port="2" to-layer="1995" to-port="1" />
		<edge from-layer="1995" from-port="2" to-layer="1998" to-port="0" />
		<edge from-layer="1996" from-port="1" to-layer="1997" to-port="0" />
		<edge from-layer="1997" from-port="2" to-layer="1998" to-port="1" />
		<edge from-layer="1998" from-port="2" to-layer="2025" to-port="3" />
		<edge from-layer="1999" from-port="1" to-layer="2003" to-port="0" />
		<edge from-layer="1999" from-port="1" to-layer="2011" to-port="0" />
		<edge from-layer="1999" from-port="1" to-layer="2019" to-port="0" />
		<edge from-layer="2000" from-port="0" to-layer="2003" to-port="1" />
		<edge from-layer="2001" from-port="0" to-layer="2003" to-port="2" />
		<edge from-layer="2002" from-port="0" to-layer="2003" to-port="3" />
		<edge from-layer="2003" from-port="4" to-layer="2005" to-port="0" />
		<edge from-layer="2004" from-port="0" to-layer="2005" to-port="1" />
		<edge from-layer="2005" from-port="2" to-layer="2007" to-port="0" />
		<edge from-layer="2006" from-port="0" to-layer="2007" to-port="1" />
		<edge from-layer="2007" from-port="2" to-layer="2008" to-port="1" />
		<edge from-layer="2008" from-port="2" to-layer="2015" to-port="0" />
		<edge from-layer="2009" from-port="0" to-layer="2011" to-port="1" />
		<edge from-layer="2010" from-port="0" to-layer="2011" to-port="2" />
		<edge from-layer="2011" from-port="3" to-layer="2012" to-port="1" />
		<edge from-layer="2012" from-port="2" to-layer="2013" to-port="1" />
		<edge from-layer="2013" from-port="2" to-layer="2022" to-port="0" />
		<edge from-layer="2013" from-port="2" to-layer="2015" to-port="1" />
		<edge from-layer="2014" from-port="0" to-layer="2015" to-port="2" />
		<edge from-layer="2015" from-port="3" to-layer="2021" to-port="0" />
		<edge from-layer="2016" from-port="0" to-layer="2020" to-port="0" />
		<edge from-layer="2017" from-port="0" to-layer="2019" to-port="1" />
		<edge from-layer="2018" from-port="0" to-layer="2019" to-port="2" />
		<edge from-layer="2019" from-port="3" to-layer="2020" to-port="1" />
		<edge from-layer="2019" from-port="3" to-layer="2023" to-port="1" />
		<edge from-layer="2020" from-port="2" to-layer="2021" to-port="1" />
		<edge from-layer="2021" from-port="2" to-layer="2024" to-port="0" />
		<edge from-layer="2022" from-port="1" to-layer="2023" to-port="0" />
		<edge from-layer="2023" from-port="2" to-layer="2024" to-port="1" />
		<edge from-layer="2024" from-port="2" to-layer="2025" to-port="4" />
		<edge from-layer="2025" from-port="5" to-layer="2157" to-port="0" />
		<edge from-layer="2026" from-port="1" to-layer="2046" to-port="0" />
		<edge from-layer="2026" from-port="1" to-layer="2030" to-port="0" />
		<edge from-layer="2026" from-port="1" to-layer="2038" to-port="0" />
		<edge from-layer="2027" from-port="0" to-layer="2030" to-port="1" />
		<edge from-layer="2028" from-port="0" to-layer="2030" to-port="2" />
		<edge from-layer="2029" from-port="0" to-layer="2030" to-port="3" />
		<edge from-layer="2030" from-port="4" to-layer="2032" to-port="0" />
		<edge from-layer="2031" from-port="0" to-layer="2032" to-port="1" />
		<edge from-layer="2032" from-port="2" to-layer="2034" to-port="0" />
		<edge from-layer="2033" from-port="0" to-layer="2034" to-port="1" />
		<edge from-layer="2034" from-port="2" to-layer="2035" to-port="1" />
		<edge from-layer="2035" from-port="2" to-layer="2042" to-port="0" />
		<edge from-layer="2036" from-port="0" to-layer="2038" to-port="1" />
		<edge from-layer="2037" from-port="0" to-layer="2038" to-port="2" />
		<edge from-layer="2038" from-port="3" to-layer="2039" to-port="1" />
		<edge from-layer="2039" from-port="2" to-layer="2040" to-port="1" />
		<edge from-layer="2040" from-port="2" to-layer="2042" to-port="1" />
		<edge from-layer="2040" from-port="2" to-layer="2049" to-port="0" />
		<edge from-layer="2041" from-port="0" to-layer="2042" to-port="2" />
		<edge from-layer="2042" from-port="3" to-layer="2048" to-port="0" />
		<edge from-layer="2043" from-port="0" to-layer="2047" to-port="0" />
		<edge from-layer="2044" from-port="0" to-layer="2046" to-port="1" />
		<edge from-layer="2045" from-port="0" to-layer="2046" to-port="2" />
		<edge from-layer="2046" from-port="3" to-layer="2050" to-port="1" />
		<edge from-layer="2046" from-port="3" to-layer="2047" to-port="1" />
		<edge from-layer="2047" from-port="2" to-layer="2048" to-port="1" />
		<edge from-layer="2048" from-port="2" to-layer="2051" to-port="0" />
		<edge from-layer="2049" from-port="1" to-layer="2050" to-port="0" />
		<edge from-layer="2050" from-port="2" to-layer="2051" to-port="1" />
		<edge from-layer="2051" from-port="2" to-layer="2156" to-port="0" />
		<edge from-layer="2052" from-port="1" to-layer="2072" to-port="0" />
		<edge from-layer="2052" from-port="1" to-layer="2064" to-port="0" />
		<edge from-layer="2052" from-port="1" to-layer="2056" to-port="0" />
		<edge from-layer="2053" from-port="0" to-layer="2056" to-port="1" />
		<edge from-layer="2054" from-port="0" to-layer="2056" to-port="2" />
		<edge from-layer="2055" from-port="0" to-layer="2056" to-port="3" />
		<edge from-layer="2056" from-port="4" to-layer="2058" to-port="0" />
		<edge from-layer="2057" from-port="0" to-layer="2058" to-port="1" />
		<edge from-layer="2058" from-port="2" to-layer="2060" to-port="0" />
		<edge from-layer="2059" from-port="0" to-layer="2060" to-port="1" />
		<edge from-layer="2060" from-port="2" to-layer="2061" to-port="1" />
		<edge from-layer="2061" from-port="2" to-layer="2068" to-port="0" />
		<edge from-layer="2062" from-port="0" to-layer="2064" to-port="1" />
		<edge from-layer="2063" from-port="0" to-layer="2064" to-port="2" />
		<edge from-layer="2064" from-port="3" to-layer="2065" to-port="1" />
		<edge from-layer="2065" from-port="2" to-layer="2066" to-port="1" />
		<edge from-layer="2066" from-port="2" to-layer="2075" to-port="0" />
		<edge from-layer="2066" from-port="2" to-layer="2068" to-port="1" />
		<edge from-layer="2067" from-port="0" to-layer="2068" to-port="2" />
		<edge from-layer="2068" from-port="3" to-layer="2074" to-port="0" />
		<edge from-layer="2069" from-port="0" to-layer="2073" to-port="0" />
		<edge from-layer="2070" from-port="0" to-layer="2072" to-port="1" />
		<edge from-layer="2071" from-port="0" to-layer="2072" to-port="2" />
		<edge from-layer="2072" from-port="3" to-layer="2073" to-port="1" />
		<edge from-layer="2072" from-port="3" to-layer="2076" to-port="1" />
		<edge from-layer="2073" from-port="2" to-layer="2074" to-port="1" />
		<edge from-layer="2074" from-port="2" to-layer="2077" to-port="0" />
		<edge from-layer="2075" from-port="1" to-layer="2076" to-port="0" />
		<edge from-layer="2076" from-port="2" to-layer="2077" to-port="1" />
		<edge from-layer="2077" from-port="2" to-layer="2156" to-port="1" />
		<edge from-layer="2078" from-port="1" to-layer="2090" to-port="0" />
		<edge from-layer="2078" from-port="1" to-layer="2098" to-port="0" />
		<edge from-layer="2078" from-port="1" to-layer="2082" to-port="0" />
		<edge from-layer="2079" from-port="0" to-layer="2082" to-port="1" />
		<edge from-layer="2080" from-port="0" to-layer="2082" to-port="2" />
		<edge from-layer="2081" from-port="0" to-layer="2082" to-port="3" />
		<edge from-layer="2082" from-port="4" to-layer="2084" to-port="0" />
		<edge from-layer="2083" from-port="0" to-layer="2084" to-port="1" />
		<edge from-layer="2084" from-port="2" to-layer="2086" to-port="0" />
		<edge from-layer="2085" from-port="0" to-layer="2086" to-port="1" />
		<edge from-layer="2086" from-port="2" to-layer="2087" to-port="1" />
		<edge from-layer="2087" from-port="2" to-layer="2094" to-port="0" />
		<edge from-layer="2088" from-port="0" to-layer="2090" to-port="1" />
		<edge from-layer="2089" from-port="0" to-layer="2090" to-port="2" />
		<edge from-layer="2090" from-port="3" to-layer="2091" to-port="1" />
		<edge from-layer="2091" from-port="2" to-layer="2092" to-port="1" />
		<edge from-layer="2092" from-port="2" to-layer="2101" to-port="0" />
		<edge from-layer="2092" from-port="2" to-layer="2094" to-port="1" />
		<edge from-layer="2093" from-port="0" to-layer="2094" to-port="2" />
		<edge from-layer="2094" from-port="3" to-layer="2100" to-port="0" />
		<edge from-layer="2095" from-port="0" to-layer="2099" to-port="0" />
		<edge from-layer="2096" from-port="0" to-layer="2098" to-port="1" />
		<edge from-layer="2097" from-port="0" to-layer="2098" to-port="2" />
		<edge from-layer="2098" from-port="3" to-layer="2102" to-port="1" />
		<edge from-layer="2098" from-port="3" to-layer="2099" to-port="1" />
		<edge from-layer="2099" from-port="2" to-layer="2100" to-port="1" />
		<edge from-layer="2100" from-port="2" to-layer="2103" to-port="0" />
		<edge from-layer="2101" from-port="1" to-layer="2102" to-port="0" />
		<edge from-layer="2102" from-port="2" to-layer="2103" to-port="1" />
		<edge from-layer="2103" from-port="2" to-layer="2156" to-port="2" />
		<edge from-layer="2104" from-port="1" to-layer="2116" to-port="0" />
		<edge from-layer="2104" from-port="1" to-layer="2124" to-port="0" />
		<edge from-layer="2104" from-port="1" to-layer="2108" to-port="0" />
		<edge from-layer="2105" from-port="0" to-layer="2108" to-port="1" />
		<edge from-layer="2106" from-port="0" to-layer="2108" to-port="2" />
		<edge from-layer="2107" from-port="0" to-layer="2108" to-port="3" />
		<edge from-layer="2108" from-port="4" to-layer="2110" to-port="0" />
		<edge from-layer="2109" from-port="0" to-layer="2110" to-port="1" />
		<edge from-layer="2110" from-port="2" to-layer="2112" to-port="0" />
		<edge from-layer="2111" from-port="0" to-layer="2112" to-port="1" />
		<edge from-layer="2112" from-port="2" to-layer="2113" to-port="1" />
		<edge from-layer="2113" from-port="2" to-layer="2120" to-port="0" />
		<edge from-layer="2114" from-port="0" to-layer="2116" to-port="1" />
		<edge from-layer="2115" from-port="0" to-layer="2116" to-port="2" />
		<edge from-layer="2116" from-port="3" to-layer="2117" to-port="1" />
		<edge from-layer="2117" from-port="2" to-layer="2118" to-port="1" />
		<edge from-layer="2118" from-port="2" to-layer="2120" to-port="1" />
		<edge from-layer="2118" from-port="2" to-layer="2127" to-port="0" />
		<edge from-layer="2119" from-port="0" to-layer="2120" to-port="2" />
		<edge from-layer="2120" from-port="3" to-layer="2126" to-port="0" />
		<edge from-layer="2121" from-port="0" to-layer="2125" to-port="0" />
		<edge from-layer="2122" from-port="0" to-layer="2124" to-port="1" />
		<edge from-layer="2123" from-port="0" to-layer="2124" to-port="2" />
		<edge from-layer="2124" from-port="3" to-layer="2125" to-port="1" />
		<edge from-layer="2124" from-port="3" to-layer="2128" to-port="1" />
		<edge from-layer="2125" from-port="2" to-layer="2126" to-port="1" />
		<edge from-layer="2126" from-port="2" to-layer="2129" to-port="0" />
		<edge from-layer="2127" from-port="1" to-layer="2128" to-port="0" />
		<edge from-layer="2128" from-port="2" to-layer="2129" to-port="1" />
		<edge from-layer="2129" from-port="2" to-layer="2156" to-port="3" />
		<edge from-layer="2130" from-port="1" to-layer="2134" to-port="0" />
		<edge from-layer="2130" from-port="1" to-layer="2150" to-port="0" />
		<edge from-layer="2130" from-port="1" to-layer="2142" to-port="0" />
		<edge from-layer="2131" from-port="0" to-layer="2134" to-port="1" />
		<edge from-layer="2132" from-port="0" to-layer="2134" to-port="2" />
		<edge from-layer="2133" from-port="0" to-layer="2134" to-port="3" />
		<edge from-layer="2134" from-port="4" to-layer="2136" to-port="0" />
		<edge from-layer="2135" from-port="0" to-layer="2136" to-port="1" />
		<edge from-layer="2136" from-port="2" to-layer="2138" to-port="0" />
		<edge from-layer="2137" from-port="0" to-layer="2138" to-port="1" />
		<edge from-layer="2138" from-port="2" to-layer="2139" to-port="1" />
		<edge from-layer="2139" from-port="2" to-layer="2146" to-port="0" />
		<edge from-layer="2140" from-port="0" to-layer="2142" to-port="1" />
		<edge from-layer="2141" from-port="0" to-layer="2142" to-port="2" />
		<edge from-layer="2142" from-port="3" to-layer="2143" to-port="1" />
		<edge from-layer="2143" from-port="2" to-layer="2144" to-port="1" />
		<edge from-layer="2144" from-port="2" to-layer="2153" to-port="0" />
		<edge from-layer="2144" from-port="2" to-layer="2146" to-port="1" />
		<edge from-layer="2145" from-port="0" to-layer="2146" to-port="2" />
		<edge from-layer="2146" from-port="3" to-layer="2152" to-port="0" />
		<edge from-layer="2147" from-port="0" to-layer="2151" to-port="0" />
		<edge from-layer="2148" from-port="0" to-layer="2150" to-port="1" />
		<edge from-layer="2149" from-port="0" to-layer="2150" to-port="2" />
		<edge from-layer="2150" from-port="3" to-layer="2151" to-port="1" />
		<edge from-layer="2150" from-port="3" to-layer="2154" to-port="1" />
		<edge from-layer="2151" from-port="2" to-layer="2152" to-port="1" />
		<edge from-layer="2152" from-port="2" to-layer="2155" to-port="0" />
		<edge from-layer="2153" from-port="1" to-layer="2154" to-port="0" />
		<edge from-layer="2154" from-port="2" to-layer="2155" to-port="1" />
		<edge from-layer="2155" from-port="2" to-layer="2156" to-port="4" />
		<edge from-layer="2156" from-port="5" to-layer="2157" to-port="1" />
		<edge from-layer="2157" from-port="2" to-layer="2159" to-port="0" />
		<edge from-layer="2157" from-port="2" to-layer="2206" to-port="0" />
		<edge from-layer="2157" from-port="2" to-layer="2174" to-port="0" />
		<edge from-layer="2158" from-port="0" to-layer="2159" to-port="1" />
		<edge from-layer="2159" from-port="2" to-layer="2161" to-port="0" />
		<edge from-layer="2159" from-port="2" to-layer="2172" to-port="0" />
		<edge from-layer="2160" from-port="0" to-layer="2165" to-port="0" />
		<edge from-layer="2161" from-port="1" to-layer="2164" to-port="0" />
		<edge from-layer="2162" from-port="0" to-layer="2164" to-port="1" />
		<edge from-layer="2163" from-port="0" to-layer="2164" to-port="2" />
		<edge from-layer="2164" from-port="3" to-layer="2167" to-port="2" />
		<edge from-layer="2164" from-port="3" to-layer="2165" to-port="1" />
		<edge from-layer="2165" from-port="2" to-layer="2167" to-port="0" />
		<edge from-layer="2166" from-port="0" to-layer="2167" to-port="1" />
		<edge from-layer="2167" from-port="3" to-layer="2169" to-port="0" />
		<edge from-layer="2168" from-port="0" to-layer="2169" to-port="1" />
		<edge from-layer="2169" from-port="2" to-layer="2171" to-port="0" />
		<edge from-layer="2170" from-port="0" to-layer="2171" to-port="1" />
		<edge from-layer="2171" from-port="2" to-layer="2172" to-port="1" />
		<edge from-layer="2172" from-port="3" to-layer="2186" to-port="0" />
		<edge from-layer="2172" from-port="3" to-layer="2211" to-port="0" />
		<edge from-layer="2173" from-port="0" to-layer="2179" to-port="0" />
		<edge from-layer="2174" from-port="1" to-layer="2201" to-port="0" />
		<edge from-layer="2174" from-port="1" to-layer="2209" to-port="0" />
		<edge from-layer="2174" from-port="1" to-layer="2217" to-port="0" />
		<edge from-layer="2174" from-port="1" to-layer="2177" to-port="0" />
		<edge from-layer="2175" from-port="0" to-layer="2177" to-port="1" />
		<edge from-layer="2176" from-port="0" to-layer="2177" to-port="2" />
		<edge from-layer="2177" from-port="3" to-layer="2368" to-port="1" />
		<edge from-layer="2177" from-port="3" to-layer="2179" to-port="1" />
		<edge from-layer="2177" from-port="3" to-layer="2246" to-port="0" />
		<edge from-layer="2177" from-port="3" to-layer="2235" to-port="1" />
		<edge from-layer="2178" from-port="0" to-layer="2179" to-port="2" />
		<edge from-layer="2179" from-port="3" to-layer="2181" to-port="0" />
		<edge from-layer="2180" from-port="0" to-layer="2181" to-port="1" />
		<edge from-layer="2181" from-port="2" to-layer="2185" to-port="0" />
		<edge from-layer="2181" from-port="2" to-layer="2210" to-port="0" />
		<edge from-layer="2182" from-port="0" to-layer="2184" to-port="1" />
		<edge from-layer="2183" from-port="0" to-layer="2184" to-port="2" />
		<edge from-layer="2184" from-port="3" to-layer="2185" to-port="1" />
		<edge from-layer="2185" from-port="2" to-layer="2186" to-port="1" />
		<edge from-layer="2186" from-port="2" to-layer="2195" to-port="0" />
		<edge from-layer="2186" from-port="2" to-layer="2188" to-port="1" />
		<edge from-layer="2187" from-port="0" to-layer="2188" to-port="2" />
		<edge from-layer="2188" from-port="3" to-layer="2194" to-port="0" />
		<edge from-layer="2189" from-port="0" to-layer="2193" to-port="0" />
		<edge from-layer="2190" from-port="0" to-layer="2192" to-port="1" />
		<edge from-layer="2191" from-port="0" to-layer="2192" to-port="2" />
		<edge from-layer="2192" from-port="3" to-layer="2196" to-port="1" />
		<edge from-layer="2192" from-port="3" to-layer="2193" to-port="1" />
		<edge from-layer="2193" from-port="2" to-layer="2194" to-port="1" />
		<edge from-layer="2194" from-port="2" to-layer="2197" to-port="0" />
		<edge from-layer="2195" from-port="1" to-layer="2196" to-port="0" />
		<edge from-layer="2196" from-port="2" to-layer="2197" to-port="1" />
		<edge from-layer="2197" from-port="2" to-layer="2230" to-port="0" />
		<edge from-layer="2197" from-port="2" to-layer="2255" to-port="0" />
		<edge from-layer="2197" from-port="2" to-layer="2264" to-port="0" />
		<edge from-layer="2198" from-port="0" to-layer="2201" to-port="1" />
		<edge from-layer="2199" from-port="0" to-layer="2201" to-port="2" />
		<edge from-layer="2200" from-port="0" to-layer="2201" to-port="3" />
		<edge from-layer="2201" from-port="4" to-layer="2203" to-port="0" />
		<edge from-layer="2202" from-port="0" to-layer="2203" to-port="1" />
		<edge from-layer="2203" from-port="2" to-layer="2205" to-port="0" />
		<edge from-layer="2204" from-port="0" to-layer="2205" to-port="1" />
		<edge from-layer="2205" from-port="2" to-layer="2206" to-port="1" />
		<edge from-layer="2206" from-port="2" to-layer="2213" to-port="0" />
		<edge from-layer="2207" from-port="0" to-layer="2209" to-port="1" />
		<edge from-layer="2208" from-port="0" to-layer="2209" to-port="2" />
		<edge from-layer="2209" from-port="3" to-layer="2210" to-port="1" />
		<edge from-layer="2210" from-port="2" to-layer="2211" to-port="1" />
		<edge from-layer="2211" from-port="2" to-layer="2220" to-port="0" />
		<edge from-layer="2211" from-port="2" to-layer="2213" to-port="1" />
		<edge from-layer="2212" from-port="0" to-layer="2213" to-port="2" />
		<edge from-layer="2213" from-port="3" to-layer="2219" to-port="0" />
		<edge from-layer="2214" from-port="0" to-layer="2218" to-port="0" />
		<edge from-layer="2215" from-port="0" to-layer="2217" to-port="1" />
		<edge from-layer="2216" from-port="0" to-layer="2217" to-port="2" />
		<edge from-layer="2217" from-port="3" to-layer="2218" to-port="1" />
		<edge from-layer="2217" from-port="3" to-layer="2221" to-port="1" />
		<edge from-layer="2218" from-port="2" to-layer="2219" to-port="1" />
		<edge from-layer="2219" from-port="2" to-layer="2222" to-port="0" />
		<edge from-layer="2220" from-port="1" to-layer="2221" to-port="0" />
		<edge from-layer="2221" from-port="2" to-layer="2222" to-port="1" />
		<edge from-layer="2222" from-port="2" to-layer="2224" to-port="0" />
		<edge from-layer="2223" from-port="0" to-layer="2224" to-port="1" />
		<edge from-layer="2224" from-port="2" to-layer="2293" to-port="0" />
		<edge from-layer="2224" from-port="2" to-layer="2284" to-port="0" />
		<edge from-layer="2224" from-port="2" to-layer="2230" to-port="1" />
		<edge from-layer="2225" from-port="0" to-layer="2230" to-port="2" />
		<edge from-layer="2226" from-port="0" to-layer="2227" to-port="0" />
		<edge from-layer="2227" from-port="1" to-layer="2230" to-port="3" />
		<edge from-layer="2228" from-port="0" to-layer="2229" to-port="0" />
		<edge from-layer="2229" from-port="1" to-layer="2230" to-port="4" />
		<edge from-layer="2230" from-port="5" to-layer="2240" to-port="0" />
		<edge from-layer="2230" from-port="5" to-layer="2267" to-port="0" />
		<edge from-layer="2230" from-port="5" to-layer="2232" to-port="0" />
		<edge from-layer="2231" from-port="0" to-layer="2232" to-port="2" />
		<edge from-layer="2232" from-port="3" to-layer="2238" to-port="0" />
		<edge from-layer="2232" from-port="3" to-layer="2303" to-port="0" />
		<edge from-layer="2232" from-port="3" to-layer="2271" to-port="0" />
		<edge from-layer="2233" from-port="0" to-layer="2235" to-port="0" />
		<edge from-layer="2234" from-port="0" to-layer="2235" to-port="2" />
		<edge from-layer="2235" from-port="3" to-layer="2237" to-port="0" />
		<edge from-layer="2236" from-port="0" to-layer="2237" to-port="1" />
		<edge from-layer="2237" from-port="2" to-layer="2238" to-port="1" />
		<edge from-layer="2238" from-port="2" to-layer="2251" to-port="0" />
		<edge from-layer="2238" from-port="2" to-layer="2254" to-port="0" />
		<edge from-layer="2239" from-port="0" to-layer="2240" to-port="2" />
		<edge from-layer="2240" from-port="3" to-layer="2297" to-port="0" />
		<edge from-layer="2240" from-port="3" to-layer="2242" to-port="0" />
		<edge from-layer="2241" from-port="0" to-layer="2242" to-port="1" />
		<edge from-layer="2242" from-port="2" to-layer="2244" to-port="0" />
		<edge from-layer="2243" from-port="0" to-layer="2244" to-port="1" />
		<edge from-layer="2244" from-port="2" to-layer="2249" to-port="0" />
		<edge from-layer="2245" from-port="0" to-layer="2246" to-port="1" />
		<edge from-layer="2246" from-port="2" to-layer="2320" to-port="0" />
		<edge from-layer="2246" from-port="2" to-layer="2248" to-port="0" />
		<edge from-layer="2247" from-port="0" to-layer="2248" to-port="1" />
		<edge from-layer="2248" from-port="2" to-layer="2249" to-port="1" />
		<edge from-layer="2249" from-port="2" to-layer="2251" to-port="1" />
		<edge from-layer="2250" from-port="0" to-layer="2251" to-port="2" />
		<edge from-layer="2251" from-port="3" to-layer="2332" to-port="0" />
		<edge from-layer="2252" from-port="0" to-layer="2331" to-port="0" />
		<edge from-layer="2253" from-port="0" to-layer="2254" to-port="1" />
		<edge from-layer="2254" from-port="2" to-layer="2324" to-port="0" />
		<edge from-layer="2255" from-port="1" to-layer="2278" to-port="0" />
		<edge from-layer="2255" from-port="1" to-layer="2270" to-port="0" />
		<edge from-layer="2255" from-port="1" to-layer="2259" to-port="0" />
		<edge from-layer="2256" from-port="0" to-layer="2259" to-port="1" />
		<edge from-layer="2257" from-port="0" to-layer="2259" to-port="2" />
		<edge from-layer="2258" from-port="0" to-layer="2259" to-port="3" />
		<edge from-layer="2259" from-port="4" to-layer="2261" to-port="0" />
		<edge from-layer="2260" from-port="0" to-layer="2261" to-port="1" />
		<edge from-layer="2261" from-port="2" to-layer="2263" to-port="0" />
		<edge from-layer="2262" from-port="0" to-layer="2263" to-port="1" />
		<edge from-layer="2263" from-port="2" to-layer="2264" to-port="1" />
		<edge from-layer="2264" from-port="2" to-layer="2274" to-port="0" />
		<edge from-layer="2265" from-port="0" to-layer="2267" to-port="1" />
		<edge from-layer="2266" from-port="0" to-layer="2267" to-port="2" />
		<edge from-layer="2267" from-port="3" to-layer="2272" to-port="0" />
		<edge from-layer="2267" from-port="3" to-layer="2298" to-port="0" />
		<edge from-layer="2268" from-port="0" to-layer="2270" to-port="1" />
		<edge from-layer="2269" from-port="0" to-layer="2270" to-port="2" />
		<edge from-layer="2270" from-port="3" to-layer="2271" to-port="1" />
		<edge from-layer="2271" from-port="2" to-layer="2272" to-port="1" />
		<edge from-layer="2272" from-port="2" to-layer="2281" to-port="0" />
		<edge from-layer="2272" from-port="2" to-layer="2274" to-port="1" />
		<edge from-layer="2273" from-port="0" to-layer="2274" to-port="2" />
		<edge from-layer="2274" from-port="3" to-layer="2280" to-port="0" />
		<edge from-layer="2275" from-port="0" to-layer="2279" to-port="0" />
		<edge from-layer="2276" from-port="0" to-layer="2278" to-port="1" />
		<edge from-layer="2277" from-port="0" to-layer="2278" to-port="2" />
		<edge from-layer="2278" from-port="3" to-layer="2282" to-port="1" />
		<edge from-layer="2278" from-port="3" to-layer="2279" to-port="1" />
		<edge from-layer="2279" from-port="2" to-layer="2280" to-port="1" />
		<edge from-layer="2280" from-port="2" to-layer="2283" to-port="0" />
		<edge from-layer="2281" from-port="1" to-layer="2282" to-port="0" />
		<edge from-layer="2282" from-port="2" to-layer="2283" to-port="1" />
		<edge from-layer="2283" from-port="2" to-layer="2313" to-port="0" />
		<edge from-layer="2284" from-port="1" to-layer="2296" to-port="0" />
		<edge from-layer="2284" from-port="1" to-layer="2288" to-port="0" />
		<edge from-layer="2284" from-port="1" to-layer="2301" to-port="0" />
		<edge from-layer="2285" from-port="0" to-layer="2288" to-port="1" />
		<edge from-layer="2286" from-port="0" to-layer="2288" to-port="2" />
		<edge from-layer="2287" from-port="0" to-layer="2288" to-port="3" />
		<edge from-layer="2288" from-port="4" to-layer="2290" to-port="0" />
		<edge from-layer="2289" from-port="0" to-layer="2290" to-port="1" />
		<edge from-layer="2290" from-port="2" to-layer="2292" to-port="0" />
		<edge from-layer="2291" from-port="0" to-layer="2292" to-port="1" />
		<edge from-layer="2292" from-port="2" to-layer="2293" to-port="1" />
		<edge from-layer="2293" from-port="2" to-layer="2306" to-port="0" />
		<edge from-layer="2294" from-port="0" to-layer="2296" to-port="1" />
		<edge from-layer="2295" from-port="0" to-layer="2296" to-port="2" />
		<edge from-layer="2296" from-port="3" to-layer="2297" to-port="1" />
		<edge from-layer="2296" from-port="3" to-layer="2302" to-port="0" />
		<edge from-layer="2297" from-port="2" to-layer="2298" to-port="1" />
		<edge from-layer="2298" from-port="2" to-layer="2304" to-port="0" />
		<edge from-layer="2299" from-port="0" to-layer="2301" to-port="1" />
		<edge from-layer="2300" from-port="0" to-layer="2301" to-port="2" />
		<edge from-layer="2301" from-port="3" to-layer="2302" to-port="1" />
		<edge from-layer="2302" from-port="2" to-layer="2303" to-port="1" />
		<edge from-layer="2303" from-port="2" to-layer="2304" to-port="1" />
		<edge from-layer="2304" from-port="2" to-layer="2309" to-port="0" />
		<edge from-layer="2304" from-port="2" to-layer="2306" to-port="1" />
		<edge from-layer="2305" from-port="0" to-layer="2306" to-port="2" />
		<edge from-layer="2306" from-port="3" to-layer="2308" to-port="0" />
		<edge from-layer="2307" from-port="0" to-layer="2308" to-port="1" />
		<edge from-layer="2308" from-port="2" to-layer="2310" to-port="0" />
		<edge from-layer="2309" from-port="1" to-layer="2310" to-port="1" />
		<edge from-layer="2310" from-port="2" to-layer="2312" to-port="0" />
		<edge from-layer="2311" from-port="0" to-layer="2312" to-port="1" />
		<edge from-layer="2312" from-port="2" to-layer="2313" to-port="1" />
		<edge from-layer="2313" from-port="2" to-layer="2315" to-port="0" />
		<edge from-layer="2314" from-port="0" to-layer="2315" to-port="1" />
		<edge from-layer="2315" from-port="2" to-layer="2317" to-port="0" />
		<edge from-layer="2316" from-port="0" to-layer="2317" to-port="1" />
		<edge from-layer="2317" from-port="2" to-layer="2321" to-port="0" />
		<edge from-layer="2318" from-port="0" to-layer="2320" to-port="1" />
		<edge from-layer="2319" from-port="0" to-layer="2320" to-port="2" />
		<edge from-layer="2320" from-port="3" to-layer="2321" to-port="1" />
		<edge from-layer="2321" from-port="2" to-layer="2324" to-port="1" />
		<edge from-layer="2322" from-port="0" to-layer="2323" to-port="0" />
		<edge from-layer="2323" from-port="1" to-layer="2324" to-port="2" />
		<edge from-layer="2324" from-port="3" to-layer="2325" to-port="0" />
		<edge from-layer="2324" from-port="3" to-layer="2349" to-port="0" />
		<edge from-layer="2325" from-port="1" to-layer="2328" to-port="0" />
		<edge from-layer="2326" from-port="0" to-layer="2328" to-port="1" />
		<edge from-layer="2327" from-port="0" to-layer="2328" to-port="2" />
		<edge from-layer="2328" from-port="3" to-layer="2330" to-port="0" />
		<edge from-layer="2328" from-port="3" to-layer="2347" to-port="0" />
		<edge from-layer="2329" from-port="0" to-layer="2330" to-port="1" />
		<edge from-layer="2330" from-port="2" to-layer="2331" to-port="1" />
		<edge from-layer="2331" from-port="2" to-layer="2332" to-port="1" />
		<edge from-layer="2332" from-port="2" to-layer="2342" to-port="0" />
		<edge from-layer="2332" from-port="2" to-layer="2333" to-port="0" />
		<edge from-layer="2333" from-port="1" to-layer="2373" to-port="0" />
		<edge from-layer="2333" from-port="1" to-layer="2337" to-port="0" />
		<edge from-layer="2334" from-port="0" to-layer="2337" to-port="1" />
		<edge from-layer="2335" from-port="0" to-layer="2337" to-port="2" />
		<edge from-layer="2336" from-port="0" to-layer="2337" to-port="3" />
		<edge from-layer="2337" from-port="4" to-layer="2339" to-port="0" />
		<edge from-layer="2338" from-port="0" to-layer="2339" to-port="1" />
		<edge from-layer="2339" from-port="2" to-layer="2341" to-port="0" />
		<edge from-layer="2340" from-port="0" to-layer="2341" to-port="1" />
		<edge from-layer="2341" from-port="2" to-layer="2342" to-port="1" />
		<edge from-layer="2342" from-port="2" to-layer="2377" to-port="0" />
		<edge from-layer="2343" from-port="0" to-layer="2344" to-port="0" />
		<edge from-layer="2344" from-port="1" to-layer="2348" to-port="0" />
		<edge from-layer="2345" from-port="0" to-layer="2347" to-port="1" />
		<edge from-layer="2346" from-port="0" to-layer="2347" to-port="2" />
		<edge from-layer="2347" from-port="3" to-layer="2348" to-port="1" />
		<edge from-layer="2348" from-port="2" to-layer="2349" to-port="1" />
		<edge from-layer="2349" from-port="2" to-layer="2352" to-port="0" />
		<edge from-layer="2349" from-port="2" to-layer="2392" to-port="0" />
		<edge from-layer="2349" from-port="2" to-layer="2383" to-port="0" />
		<edge from-layer="2350" from-port="0" to-layer="2352" to-port="1" />
		<edge from-layer="2351" from-port="0" to-layer="2352" to-port="2" />
		<edge from-layer="2352" from-port="3" to-layer="2354" to-port="0" />
		<edge from-layer="2352" from-port="3" to-layer="2365" to-port="0" />
		<edge from-layer="2353" from-port="0" to-layer="2358" to-port="0" />
		<edge from-layer="2354" from-port="1" to-layer="2357" to-port="0" />
		<edge from-layer="2355" from-port="0" to-layer="2357" to-port="1" />
		<edge from-layer="2356" from-port="0" to-layer="2357" to-port="2" />
		<edge from-layer="2357" from-port="3" to-layer="2358" to-port="1" />
		<edge from-layer="2357" from-port="3" to-layer="2360" to-port="2" />
		<edge from-layer="2358" from-port="2" to-layer="2360" to-port="0" />
		<edge from-layer="2359" from-port="0" to-layer="2360" to-port="1" />
		<edge from-layer="2360" from-port="3" to-layer="2362" to-port="0" />
		<edge from-layer="2361" from-port="0" to-layer="2362" to-port="1" />
		<edge from-layer="2362" from-port="2" to-layer="2364" to-port="0" />
		<edge from-layer="2363" from-port="0" to-layer="2364" to-port="1" />
		<edge from-layer="2364" from-port="2" to-layer="2365" to-port="1" />
		<edge from-layer="2365" from-port="3" to-layer="2397" to-port="0" />
		<edge from-layer="2365" from-port="3" to-layer="2375" to-port="0" />
		<edge from-layer="2366" from-port="0" to-layer="2368" to-port="0" />
		<edge from-layer="2367" from-port="0" to-layer="2368" to-port="2" />
		<edge from-layer="2368" from-port="3" to-layer="2370" to-port="0" />
		<edge from-layer="2369" from-port="0" to-layer="2370" to-port="1" />
		<edge from-layer="2370" from-port="2" to-layer="2374" to-port="0" />
		<edge from-layer="2370" from-port="2" to-layer="2396" to-port="0" />
		<edge from-layer="2371" from-port="0" to-layer="2373" to-port="1" />
		<edge from-layer="2372" from-port="0" to-layer="2373" to-port="2" />
		<edge from-layer="2373" from-port="3" to-layer="2374" to-port="1" />
		<edge from-layer="2374" from-port="2" to-layer="2375" to-port="1" />
		<edge from-layer="2375" from-port="2" to-layer="2377" to-port="1" />
		<edge from-layer="2375" from-port="2" to-layer="2380" to-port="0" />
		<edge from-layer="2376" from-port="0" to-layer="2377" to-port="2" />
		<edge from-layer="2377" from-port="3" to-layer="2379" to-port="0" />
		<edge from-layer="2378" from-port="0" to-layer="2379" to-port="1" />
		<edge from-layer="2379" from-port="2" to-layer="2381" to-port="0" />
		<edge from-layer="2380" from-port="1" to-layer="2381" to-port="1" />
		<edge from-layer="2381" from-port="2" to-layer="2382" to-port="0" />
		<edge from-layer="2383" from-port="1" to-layer="2403" to-port="0" />
		<edge from-layer="2383" from-port="1" to-layer="2395" to-port="0" />
		<edge from-layer="2383" from-port="1" to-layer="2387" to-port="0" />
		<edge from-layer="2384" from-port="0" to-layer="2387" to-port="1" />
		<edge from-layer="2385" from-port="0" to-layer="2387" to-port="2" />
		<edge from-layer="2386" from-port="0" to-layer="2387" to-port="3" />
		<edge from-layer="2387" from-port="4" to-layer="2389" to-port="0" />
		<edge from-layer="2388" from-port="0" to-layer="2389" to-port="1" />
		<edge from-layer="2389" from-port="2" to-layer="2391" to-port="0" />
		<edge from-layer="2390" from-port="0" to-layer="2391" to-port="1" />
		<edge from-layer="2391" from-port="2" to-layer="2392" to-port="1" />
		<edge from-layer="2392" from-port="2" to-layer="2399" to-port="0" />
		<edge from-layer="2393" from-port="0" to-layer="2395" to-port="1" />
		<edge from-layer="2394" from-port="0" to-layer="2395" to-port="2" />
		<edge from-layer="2395" from-port="3" to-layer="2396" to-port="1" />
		<edge from-layer="2396" from-port="2" to-layer="2397" to-port="1" />
		<edge from-layer="2397" from-port="2" to-layer="2399" to-port="1" />
		<edge from-layer="2397" from-port="2" to-layer="2406" to-port="0" />
		<edge from-layer="2398" from-port="0" to-layer="2399" to-port="2" />
		<edge from-layer="2399" from-port="3" to-layer="2405" to-port="0" />
		<edge from-layer="2400" from-port="0" to-layer="2404" to-port="0" />
		<edge from-layer="2401" from-port="0" to-layer="2403" to-port="1" />
		<edge from-layer="2402" from-port="0" to-layer="2403" to-port="2" />
		<edge from-layer="2403" from-port="3" to-layer="2404" to-port="1" />
		<edge from-layer="2403" from-port="3" to-layer="2407" to-port="1" />
		<edge from-layer="2404" from-port="2" to-layer="2405" to-port="1" />
		<edge from-layer="2405" from-port="2" to-layer="2408" to-port="0" />
		<edge from-layer="2406" from-port="1" to-layer="2407" to-port="0" />
		<edge from-layer="2407" from-port="2" to-layer="2408" to-port="1" />
		<edge from-layer="2408" from-port="2" to-layer="2409" to-port="0" />
	</edges>
	<rt_info>
		<MO_version value="2023.3.0-13775-ceeafaf64f3-releases/2023/3" />
		<Runtime_version value="2023.3.0-13775-ceeafaf64f3-releases/2023/3" />
		<conversion_parameters>
			<input value="image" />
			<input_model value="DIR/model_ready.onnx" />
			<input_shape value="[-1, 3, 736, 992]" />
			<is_python_api_used value="False" />
			<mean_values value="[0, 0, 0]" />
			<model_name value="model" />
			<output value="boxes,labels" />
			<output_dir value="DIR" />
			<scale_values value="[255, 255, 255]" />
		</conversion_parameters>
		<legacy_frontend value="False" />
		<model_info>
			<confidence_threshold value="0.275" />
			<iou_threshold value="0.5" />
			<label_ids value="672f671cf838622aa2534ab4" />
			<labels value="object" />
			<model_type value="ssd" />
			<task_type value="detection" />
			<use_ellipse_shapes value="False" />
		</model_info>
	</rt_info>
</net>
